node {
  name: "parallel_read/input_producer/Const"
  op: "Const"
  device: "/job:master/task:0"
  attr {
    key: "_output_shapes"
    value {
      list {
        shape {
          dim {
            size: 4046
          }
        }
      }
    }
  }
  attr {
    key: "dtype"
    value {
      type: DT_STRING
    }
  }
  attr {
    key: "value"
    value {
      tensor {
        dtype: DT_STRING
        tensor_shape {
          dim {
            size: 4046
          }
        }
        string_val: "gs://superb-avatar-149807-ml/train/1_1009test_1.tfr"
        string_val: "gs://superb-avatar-149807-ml/train/1_100_1.tfr"
        string_val: "gs://superb-avatar-149807-ml/train/1_1010_0.tfr"
        string_val: "gs://superb-avatar-149807-ml/train/1_1011_0.tfr"
        string_val: "gs://superb-avatar-149807-ml/train/1_1012_0.tfr"
        string_val: "gs://superb-avatar-149807-ml/train/1_1013_0.tfr"
        string_val: "gs://superb-avatar-149807-ml/train/1_1014_0.tfr"
        string_val: "gs://superb-avatar-149807-ml/train/1_101_0.tfr"
        string_val: "gs://superb-avatar-149807-ml/train/1_101_1.tfr"
        string_val: "gs://superb-avatar-149807-ml/train/1_1021test_1.tfr"
        string_val: "gs://superb-avatar-149807-ml/train/1_1027_0.tfr"
        string_val: "gs://superb-avatar-149807-ml/train/1_1028_0.tfr"
        string_val: "gs://superb-avatar-149807-ml/train/1_1029_0.tfr"
        string_val: "gs://superb-avatar-149807-ml/train/1_102_0.tfr"
        string_val: "gs://superb-avatar-149807-ml/train/1_102_1.tfr"
        string_val: "gs://superb-avatar-149807-ml/train/1_1030_0.tfr"
        string_val: "gs://superb-avatar-149807-ml/train/1_1031_0.tfr"
        string_val: "gs://superb-avatar-149807-ml/train/1_1033_0.tfr"
        string_val: "gs://superb-avatar-149807-ml/train/1_1034_0.tfr"
        string_val: "gs://superb-avatar-149807-ml/train/1_1035_0.tfr"
        string_val: "gs://superb-avatar-149807-ml/train/1_1037_0.tfr"
        string_val: "gs://superb-avatar-149807-ml/train/1_1038_0.tfr"
        string_val: "gs://superb-avatar-149807-ml/train/1_1039_0.tfr"
        string_val: "gs://superb-avatar-149807-ml/train/1_103_0.tfr"
        string_val: "gs://superb-avatar-149807-ml/train/1_103_1.tfr"
        string_val: "gs://superb-avatar-149807-ml/train/1_1042_0.tfr"
        string_val: "gs://superb-avatar-149807-ml/train/1_1043_0.tfr"
        string_val: "gs://superb-avatar-149807-ml/train/1_1044_0.tfr"
        string_val: "gs://superb-avatar-149807-ml/train/1_1045_0.tfr"
        string_val: "gs://superb-avatar-149807-ml/train/1_1046_0.tfr"
        string_val: "gs://superb-avatar-149807-ml/train/1_1047_0.tfr"
        string_val: "gs://superb-avatar-149807-ml/train/1_1048_0.tfr"
        string_val: "gs://superb-avatar-149807-ml/train/1_1049_0.tfr"
        string_val: "gs://superb-avatar-149807-ml/train/1_104_1.tfr"
        string_val: "gs://superb-avatar-149807-ml/train/1_1050_0.tfr"
        string_val: "gs://superb-avatar-149807-ml/train/1_1051_0.tfr"
        string_val: "gs://superb-avatar-149807-ml/train/1_1052_0.tfr"
        string_val: "gs://superb-avatar-149807-ml/train/1_1055_0.tfr"
        string_val: "gs://superb-avatar-149807-ml/train/1_1056_0.tfr"
        string_val: "gs://superb-avatar-149807-ml/train/1_1057_0.tfr"
        string_val: "gs://superb-avatar-149807-ml/train/1_1058_0.tfr"
        string_val: "gs://superb-avatar-149807-ml/train/1_1059_0.tfr"
        string_val: "gs://superb-avatar-149807-ml/train/1_105_0.tfr"
        string_val: "gs://superb-avatar-149807-ml/train/1_105_1.tfr"
        string_val: "gs://superb-avatar-149807-ml/train/1_1060_0.tfr"
        string_val: "gs://superb-avatar-149807-ml/train/1_1062_0.tfr"
        string_val: "gs://superb-avatar-149807-ml/train/1_1063_0.tfr"
        string_val: "gs://superb-avatar-149807-ml/train/1_1064_0.tfr"
        string_val: "gs://superb-avatar-149807-ml/train/1_1066_0.tfr"
        string_val: "gs://superb-avatar-149807-ml/train/1_1067_0.tfr"
        string_val: "gs://superb-avatar-149807-ml/train/1_106_0.tfr"
        string_val: "gs://superb-avatar-149807-ml/train/1_106_1.tfr"
        string_val: "gs://superb-avatar-149807-ml/train/1_1070_0.tfr"
        string_val: "gs://superb-avatar-149807-ml/train/1_1071_0.tfr"
        string_val: "gs://superb-avatar-149807-ml/train/1_1072_0.tfr"
        string_val: "gs://superb-avatar-149807-ml/train/1_1073_0.tfr"
        string_val: "gs://superb-avatar-149807-ml/train/1_1075_0.tfr"
        string_val: "gs://superb-avatar-149807-ml/train/1_1076_0.tfr"
        string_val: "gs://superb-avatar-149807-ml/train/1_1077_0.tfr"
        string_val: "gs://superb-avatar-149807-ml/train/1_1078_0.tfr"
        string_val: "gs://superb-avatar-149807-ml/train/1_1079_0.tfr"
        string_val: "gs://superb-avatar-149807-ml/train/1_107_0.tfr"
        string_val: "gs://superb-avatar-149807-ml/train/1_107_1.tfr"
        string_val: "gs://superb-avatar-149807-ml/train/1_107test_1.tfr"
        string_val: "gs://superb-avatar-149807-ml/train/1_1080_0.tfr"
        string_val: "gs://superb-avatar-149807-ml/train/1_1081_0.tfr"
        string_val: "gs://superb-avatar-149807-ml/train/1_1082_0.tfr"
        string_val: "gs://superb-avatar-149807-ml/train/1_1083_0.tfr"
        string_val: "gs://superb-avatar-149807-ml/train/1_1084_0.tfr"
        string_val: "gs://superb-avatar-149807-ml/train/1_1085_0.tfr"
        string_val: "gs://superb-avatar-149807-ml/train/1_1086_0.tfr"
        string_val: "gs://superb-avatar-149807-ml/train/1_1086test_1.tfr"
        string_val: "gs://superb-avatar-149807-ml/train/1_1087_0.tfr"
        string_val: "gs://superb-avatar-149807-ml/train/1_1088_0.tfr"
        string_val: "gs://superb-avatar-149807-ml/train/1_108_0.tfr"
        string_val: "gs://superb-avatar-149807-ml/train/1_108_1.tfr"
        string_val: "gs://superb-avatar-149807-ml/train/1_1090_0.tfr"
        string_val: "gs://superb-avatar-149807-ml/train/1_1091_0.tfr"
        string_val: "gs://superb-avatar-149807-ml/train/1_1092_0.tfr"
        string_val: "gs://superb-avatar-149807-ml/train/1_1093_0.tfr"
        string_val: "gs://superb-avatar-149807-ml/train/1_1094_0.tfr"
        string_val: "gs://superb-avatar-149807-ml/train/1_1095_0.tfr"
        string_val: "gs://superb-avatar-149807-ml/train/1_1096_0.tfr"
        string_val: "gs://superb-avatar-149807-ml/train/1_1098_0.tfr"
        string_val: "gs://superb-avatar-149807-ml/train/1_109_0.tfr"
        string_val: "gs://superb-avatar-149807-ml/train/1_109_1.tfr"
        string_val: "gs://superb-avatar-149807-ml/train/1_10_0.tfr"
        string_val: "gs://superb-avatar-149807-ml/train/1_10_1.tfr"
        string_val: "gs://superb-avatar-149807-ml/train/1_1104test_1.tfr"
        string_val: "gs://superb-avatar-149807-ml/train/1_110_0.tfr"
        string_val: "gs://superb-avatar-149807-ml/train/1_110_1.tfr"
        string_val: "gs://superb-avatar-149807-ml/train/1_1117_0.tfr"
        string_val: "gs://superb-avatar-149807-ml/train/1_111_0.tfr"
        string_val: "gs://superb-avatar-149807-ml/train/1_111_1.tfr"
        string_val: "gs://superb-avatar-149807-ml/train/1_1121_0.tfr"
        string_val: "gs://superb-avatar-149807-ml/train/1_1122_0.tfr"
        string_val: "gs://superb-avatar-149807-ml/train/1_1123_0.tfr"
        string_val: "gs://superb-avatar-149807-ml/train/1_1124_0.tfr"
        string_val: "gs://superb-avatar-149807-ml/train/1_1125_0.tfr"
        string_val: "gs://superb-avatar-149807-ml/train/1_1126_0.tfr"
        string_val: "gs://superb-avatar-149807-ml/train/1_1127_0.tfr"
        string_val: "gs://superb-avatar-149807-ml/train/1_1128_0.tfr"
        string_val: "gs://superb-avatar-149807-ml/train/1_112_0.tfr"
        string_val: "gs://superb-avatar-149807-ml/train/1_112_1.tfr"
        string_val: "gs://superb-avatar-149807-ml/train/1_112test_1.tfr"
        string_val: "gs://superb-avatar-149807-ml/train/1_113_0.tfr"
        string_val: "gs://superb-avatar-149807-ml/train/1_113_1.tfr"
        string_val: "gs://superb-avatar-149807-ml/train/1_1142test_1.tfr"
        string_val: "gs://superb-avatar-149807-ml/train/1_114_0.tfr"
        string_val: "gs://superb-avatar-149807-ml/train/1_114_1.tfr"
        string_val: "gs://superb-avatar-149807-ml/train/1_115_0.tfr"
        string_val: "gs://superb-avatar-149807-ml/train/1_115_1.tfr"
        string_val: "gs://superb-avatar-149807-ml/train/1_1166test_1.tfr"
        string_val: "gs://superb-avatar-149807-ml/train/1_1169test_1.tfr"
        string_val: "gs://superb-avatar-149807-ml/train/1_116_0.tfr"
        string_val: "gs://superb-avatar-149807-ml/train/1_116_1.tfr"
        string_val: "gs://superb-avatar-149807-ml/train/1_117_0.tfr"
        string_val: "gs://superb-avatar-149807-ml/train/1_117_1.tfr"
        string_val: "gs://superb-avatar-149807-ml/train/1_1182test_1.tfr"
        string_val: "gs://superb-avatar-149807-ml/train/1_118_0.tfr"
        string_val: "gs://superb-avatar-149807-ml/train/1_118_1.tfr"
        string_val: "gs://superb-avatar-149807-ml/train/1_119_0.tfr"
        string_val: "gs://superb-avatar-149807-ml/train/1_119_1.tfr"
        string_val: "gs://superb-avatar-149807-ml/train/1_11_0.tfr"
        string_val: "gs://superb-avatar-149807-ml/train/1_11_1.tfr"
        string_val: "gs://superb-avatar-149807-ml/train/1_120_0.tfr"
        string_val: "gs://superb-avatar-149807-ml/train/1_120_1.tfr"
        string_val: "gs://superb-avatar-149807-ml/train/1_1215test_1.tfr"
        string_val: "gs://superb-avatar-149807-ml/train/1_121_0.tfr"
        string_val: "gs://superb-avatar-149807-ml/train/1_121_1.tfr"
        string_val: "gs://superb-avatar-149807-ml/train/1_122_0.tfr"
        string_val: "gs://superb-avatar-149807-ml/train/1_122_1.tfr"
        string_val: "gs://superb-avatar-149807-ml/train/1_1230test_1.tfr"
        string_val: "gs://superb-avatar-149807-ml/train/1_1232test_1.tfr"
        string_val: "gs://superb-avatar-149807-ml/train/1_123_1.tfr"
        string_val: "gs://superb-avatar-149807-ml/train/1_1243test_1.tfr"
        string_val: "gs://superb-avatar-149807-ml/train/1_1247test_1.tfr"
        string_val: "gs://superb-avatar-149807-ml/train/1_124_1.tfr"
        string_val: "gs://superb-avatar-149807-ml/train/1_1258test_1.tfr"
        string_val: "gs://superb-avatar-149807-ml/train/1_125_0.tfr"
        string_val: "gs://superb-avatar-149807-ml/train/1_125_1.tfr"
        string_val: "gs://superb-avatar-149807-ml/train/1_126_1.tfr"
        string_val: "gs://superb-avatar-149807-ml/train/1_126test_1.tfr"
        string_val: "gs://superb-avatar-149807-ml/train/1_127_1.tfr"
        string_val: "gs://superb-avatar-149807-ml/train/1_128_1.tfr"
        string_val: "gs://superb-avatar-149807-ml/train/1_129_1.tfr"
        string_val: "gs://superb-avatar-149807-ml/train/1_12_0.tfr"
        string_val: "gs://superb-avatar-149807-ml/train/1_131_1.tfr"
        string_val: "gs://superb-avatar-149807-ml/train/1_1327test_1.tfr"
        string_val: "gs://superb-avatar-149807-ml/train/1_132_1.tfr"
        string_val: "gs://superb-avatar-149807-ml/train/1_1333test_1.tfr"
        string_val: "gs://superb-avatar-149807-ml/train/1_133_1.tfr"
        string_val: "gs://superb-avatar-149807-ml/train/1_1348test_1.tfr"
        string_val: "gs://superb-avatar-149807-ml/train/1_1353test_1.tfr"
        string_val: "gs://superb-avatar-149807-ml/train/1_1355test_1.tfr"
        string_val: "gs://superb-avatar-149807-ml/train/1_135_1.tfr"
        string_val: "gs://superb-avatar-149807-ml/train/1_1366test_1.tfr"
        string_val: "gs://superb-avatar-149807-ml/train/1_136_1.tfr"
        string_val: "gs://superb-avatar-149807-ml/train/1_137_1.tfr"
        string_val: "gs://superb-avatar-149807-ml/train/1_1380test_1.tfr"
        string_val: "gs://superb-avatar-149807-ml/train/1_138_1.tfr"
        string_val: "gs://superb-avatar-149807-ml/train/1_1390test_1.tfr"
        string_val: "gs://superb-avatar-149807-ml/train/1_139_1.tfr"
        string_val: "gs://superb-avatar-149807-ml/train/1_13_0.tfr"
        string_val: "gs://superb-avatar-149807-ml/train/1_140_1.tfr"
        string_val: "gs://superb-avatar-149807-ml/train/1_1410test_1.tfr"
        string_val: "gs://superb-avatar-149807-ml/train/1_1417test_1.tfr"
        string_val: "gs://superb-avatar-149807-ml/train/1_141_1.tfr"
        string_val: "gs://superb-avatar-149807-ml/train/1_1427test_1.tfr"
        string_val: "gs://superb-avatar-149807-ml/train/1_142_1.tfr"
        string_val: "gs://superb-avatar-149807-ml/train/1_1438test_1.tfr"
        string_val: "gs://superb-avatar-149807-ml/train/1_143_1.tfr"
        string_val: "gs://superb-avatar-149807-ml/train/1_144_1.tfr"
        string_val: "gs://superb-avatar-149807-ml/train/1_1454test_1.tfr"
        string_val: "gs://superb-avatar-149807-ml/train/1_1459test_1.tfr"
        string_val: "gs://superb-avatar-149807-ml/train/1_145_1.tfr"
        string_val: "gs://superb-avatar-149807-ml/train/1_147_1.tfr"
        string_val: "gs://superb-avatar-149807-ml/train/1_148_1.tfr"
        string_val: "gs://superb-avatar-149807-ml/train/1_149_1.tfr"
        string_val: "gs://superb-avatar-149807-ml/train/1_14_1.tfr"
        string_val: "gs://superb-avatar-149807-ml/train/1_1506test_1.tfr"
        string_val: "gs://superb-avatar-149807-ml/train/1_150_1.tfr"
        string_val: "gs://superb-avatar-149807-ml/train/1_151test_1.tfr"
        string_val: "gs://superb-avatar-149807-ml/train/1_1530test_1.tfr"
        string_val: "gs://superb-avatar-149807-ml/train/1_1533test_1.tfr"
        string_val: "gs://superb-avatar-149807-ml/train/1_1578test_1.tfr"
        string_val: "gs://superb-avatar-149807-ml/train/1_15_0.tfr"
        string_val: "gs://superb-avatar-149807-ml/train/1_15_1.tfr"
        string_val: "gs://superb-avatar-149807-ml/train/1_169test_1.tfr"
        string_val: "gs://superb-avatar-149807-ml/train/1_16_1.tfr"
        string_val: "gs://superb-avatar-149807-ml/train/1_17_0.tfr"
        string_val: "gs://superb-avatar-149807-ml/train/1_17_1.tfr"
        string_val: "gs://superb-avatar-149807-ml/train/1_187_0.tfr"
        string_val: "gs://superb-avatar-149807-ml/train/1_189_0.tfr"
        string_val: "gs://superb-avatar-149807-ml/train/1_18_0.tfr"
        string_val: "gs://superb-avatar-149807-ml/train/1_18_1.tfr"
        string_val: "gs://superb-avatar-149807-ml/train/1_190_0.tfr"
        string_val: "gs://superb-avatar-149807-ml/train/1_191_0.tfr"
        string_val: "gs://superb-avatar-149807-ml/train/1_193_0.tfr"
        string_val: "gs://superb-avatar-149807-ml/train/1_194_0.tfr"
        string_val: "gs://superb-avatar-149807-ml/train/1_195_0.tfr"
        string_val: "gs://superb-avatar-149807-ml/train/1_198_0.tfr"
        string_val: "gs://superb-avatar-149807-ml/train/1_199_0.tfr"
        string_val: "gs://superb-avatar-149807-ml/train/1_19_0.tfr"
        string_val: "gs://superb-avatar-149807-ml/train/1_19test_1.tfr"
        string_val: "gs://superb-avatar-149807-ml/train/1_1_1.tfr"
        string_val: "gs://superb-avatar-149807-ml/train/1_200_0.tfr"
        string_val: "gs://superb-avatar-149807-ml/train/1_201_0.tfr"
        string_val: "gs://superb-avatar-149807-ml/train/1_202_0.tfr"
        string_val: "gs://superb-avatar-149807-ml/train/1_202test_1.tfr"
        string_val: "gs://superb-avatar-149807-ml/train/1_203_0.tfr"
        string_val: "gs://superb-avatar-149807-ml/train/1_204_0.tfr"
        string_val: "gs://superb-avatar-149807-ml/train/1_205_0.tfr"
        string_val: "gs://superb-avatar-149807-ml/train/1_206_0.tfr"
        string_val: "gs://superb-avatar-149807-ml/train/1_208_0.tfr"
        string_val: "gs://superb-avatar-149807-ml/train/1_209_0.tfr"
        string_val: "gs://superb-avatar-149807-ml/train/1_20_1.tfr"
        string_val: "gs://superb-avatar-149807-ml/train/1_210_0.tfr"
        string_val: "gs://superb-avatar-149807-ml/train/1_211_0.tfr"
        string_val: "gs://superb-avatar-149807-ml/train/1_212_0.tfr"
        string_val: "gs://superb-avatar-149807-ml/train/1_213_0.tfr"
        string_val: "gs://superb-avatar-149807-ml/train/1_214_0.tfr"
        string_val: "gs://superb-avatar-149807-ml/train/1_216_0.tfr"
        string_val: "gs://superb-avatar-149807-ml/train/1_217_0.tfr"
        string_val: "gs://superb-avatar-149807-ml/train/1_219_0.tfr"
        string_val: "gs://superb-avatar-149807-ml/train/1_21_0.tfr"
        string_val: "gs://superb-avatar-149807-ml/train/1_221_0.tfr"
        string_val: "gs://superb-avatar-149807-ml/train/1_222_0.tfr"
        string_val: "gs://superb-avatar-149807-ml/train/1_223_0.tfr"
        string_val: "gs://superb-avatar-149807-ml/train/1_224_0.tfr"
        string_val: "gs://superb-avatar-149807-ml/train/1_225_0.tfr"
        string_val: "gs://superb-avatar-149807-ml/train/1_228_0.tfr"
        string_val: "gs://superb-avatar-149807-ml/train/1_229_0.tfr"
        string_val: "gs://superb-avatar-149807-ml/train/1_22_1.tfr"
        string_val: "gs://superb-avatar-149807-ml/train/1_230_0.tfr"
        string_val: "gs://superb-avatar-149807-ml/train/1_233_0.tfr"
        string_val: "gs://superb-avatar-149807-ml/train/1_234_0.tfr"
        string_val: "gs://superb-avatar-149807-ml/train/1_236_0.tfr"
        string_val: "gs://superb-avatar-149807-ml/train/1_237_0.tfr"
        string_val: "gs://superb-avatar-149807-ml/train/1_238_0.tfr"
        string_val: "gs://superb-avatar-149807-ml/train/1_239_0.tfr"
        string_val: "gs://superb-avatar-149807-ml/train/1_239test_1.tfr"
        string_val: "gs://superb-avatar-149807-ml/train/1_23_0.tfr"
        string_val: "gs://superb-avatar-149807-ml/train/1_241_0.tfr"
        string_val: "gs://superb-avatar-149807-ml/train/1_242_0.tfr"
        string_val: "gs://superb-avatar-149807-ml/train/1_243_0.tfr"
        string_val: "gs://superb-avatar-149807-ml/train/1_244_0.tfr"
        string_val: "gs://superb-avatar-149807-ml/train/1_245test_1.tfr"
        string_val: "gs://superb-avatar-149807-ml/train/1_246_0.tfr"
        string_val: "gs://superb-avatar-149807-ml/train/1_247_0.tfr"
        string_val: "gs://superb-avatar-149807-ml/train/1_248_0.tfr"
        string_val: "gs://superb-avatar-149807-ml/train/1_249_0.tfr"
        string_val: "gs://superb-avatar-149807-ml/train/1_24_0.tfr"
        string_val: "gs://superb-avatar-149807-ml/train/1_24_1.tfr"
        string_val: "gs://superb-avatar-149807-ml/train/1_250_0.tfr"
        string_val: "gs://superb-avatar-149807-ml/train/1_251_0.tfr"
        string_val: "gs://superb-avatar-149807-ml/train/1_252_0.tfr"
        string_val: "gs://superb-avatar-149807-ml/train/1_25_0.tfr"
        string_val: "gs://superb-avatar-149807-ml/train/1_25_1.tfr"
        string_val: "gs://superb-avatar-149807-ml/train/1_264test_1.tfr"
        string_val: "gs://superb-avatar-149807-ml/train/1_26_0.tfr"
        string_val: "gs://superb-avatar-149807-ml/train/1_26_1.tfr"
        string_val: "gs://superb-avatar-149807-ml/train/1_26test_1.tfr"
        string_val: "gs://superb-avatar-149807-ml/train/1_27_0.tfr"
        string_val: "gs://superb-avatar-149807-ml/train/1_27_1.tfr"
        string_val: "gs://superb-avatar-149807-ml/train/1_28_0.tfr"
        string_val: "gs://superb-avatar-149807-ml/train/1_28_1.tfr"
        string_val: "gs://superb-avatar-149807-ml/train/1_29_0.tfr"
        string_val: "gs://superb-avatar-149807-ml/train/1_29_1.tfr"
        string_val: "gs://superb-avatar-149807-ml/train/1_2_1.tfr"
        string_val: "gs://superb-avatar-149807-ml/train/1_300test_1.tfr"
        string_val: "gs://superb-avatar-149807-ml/train/1_30_1.tfr"
        string_val: "gs://superb-avatar-149807-ml/train/1_31_0.tfr"
        string_val: "gs://superb-avatar-149807-ml/train/1_31_1.tfr"
        string_val: "gs://superb-avatar-149807-ml/train/1_322test_1.tfr"
        string_val: "gs://superb-avatar-149807-ml/train/1_32_0.tfr"
        string_val: "gs://superb-avatar-149807-ml/train/1_32_1.tfr"
        string_val: "gs://superb-avatar-149807-ml/train/1_331_0.tfr"
        string_val: "gs://superb-avatar-149807-ml/train/1_332_0.tfr"
        string_val: "gs://superb-avatar-149807-ml/train/1_333_0.tfr"
        string_val: "gs://superb-avatar-149807-ml/train/1_336_0.tfr"
        string_val: "gs://superb-avatar-149807-ml/train/1_337_0.tfr"
        string_val: "gs://superb-avatar-149807-ml/train/1_338_0.tfr"
        string_val: "gs://superb-avatar-149807-ml/train/1_339_0.tfr"
        string_val: "gs://superb-avatar-149807-ml/train/1_33_0.tfr"
        string_val: "gs://superb-avatar-149807-ml/train/1_33_1.tfr"
        string_val: "gs://superb-avatar-149807-ml/train/1_340_0.tfr"
        string_val: "gs://superb-avatar-149807-ml/train/1_341_0.tfr"
        string_val: "gs://superb-avatar-149807-ml/train/1_341test_1.tfr"
        string_val: "gs://superb-avatar-149807-ml/train/1_342_0.tfr"
        string_val: "gs://superb-avatar-149807-ml/train/1_344_0.tfr"
        string_val: "gs://superb-avatar-149807-ml/train/1_345_0.tfr"
        string_val: "gs://superb-avatar-149807-ml/train/1_346_0.tfr"
        string_val: "gs://superb-avatar-149807-ml/train/1_348_0.tfr"
        string_val: "gs://superb-avatar-149807-ml/train/1_34_0.tfr"
        string_val: "gs://superb-avatar-149807-ml/train/1_34_1.tfr"
        string_val: "gs://superb-avatar-149807-ml/train/1_350_0.tfr"
        string_val: "gs://superb-avatar-149807-ml/train/1_350test_1.tfr"
        string_val: "gs://superb-avatar-149807-ml/train/1_351_0.tfr"
        string_val: "gs://superb-avatar-149807-ml/train/1_352_0.tfr"
        string_val: "gs://superb-avatar-149807-ml/train/1_353_0.tfr"
        string_val: "gs://superb-avatar-149807-ml/train/1_354test_1.tfr"
        string_val: "gs://superb-avatar-149807-ml/train/1_355_0.tfr"
        string_val: "gs://superb-avatar-149807-ml/train/1_356_0.tfr"
        string_val: "gs://superb-avatar-149807-ml/train/1_357_0.tfr"
        string_val: "gs://superb-avatar-149807-ml/train/1_358_0.tfr"
        string_val: "gs://superb-avatar-149807-ml/train/1_358test_1.tfr"
        string_val: "gs://superb-avatar-149807-ml/train/1_359_0.tfr"
        string_val: "gs://superb-avatar-149807-ml/train/1_35_0.tfr"
        string_val: "gs://superb-avatar-149807-ml/train/1_35_1.tfr"
        string_val: "gs://superb-avatar-149807-ml/train/1_361_0.tfr"
        string_val: "gs://superb-avatar-149807-ml/train/1_362_0.tfr"
        string_val: "gs://superb-avatar-149807-ml/train/1_363_0.tfr"
        string_val: "gs://superb-avatar-149807-ml/train/1_364_0.tfr"
        string_val: "gs://superb-avatar-149807-ml/train/1_365_0.tfr"
        string_val: "gs://superb-avatar-149807-ml/train/1_368_0.tfr"
        string_val: "gs://superb-avatar-149807-ml/train/1_369_0.tfr"
        string_val: "gs://superb-avatar-149807-ml/train/1_36_0.tfr"
        string_val: "gs://superb-avatar-149807-ml/train/1_36_1.tfr"
        string_val: "gs://superb-avatar-149807-ml/train/1_370_0.tfr"
        string_val: "gs://superb-avatar-149807-ml/train/1_372_0.tfr"
        string_val: "gs://superb-avatar-149807-ml/train/1_374_0.tfr"
        string_val: "gs://superb-avatar-149807-ml/train/1_375_0.tfr"
        string_val: "gs://superb-avatar-149807-ml/train/1_376_0.tfr"
        string_val: "gs://superb-avatar-149807-ml/train/1_377_0.tfr"
        string_val: "gs://superb-avatar-149807-ml/train/1_378_0.tfr"
        string_val: "gs://superb-avatar-149807-ml/train/1_379_0.tfr"
        string_val: "gs://superb-avatar-149807-ml/train/1_37_0.tfr"
        string_val: "gs://superb-avatar-149807-ml/train/1_37_1.tfr"
        string_val: "gs://superb-avatar-149807-ml/train/1_380_0.tfr"
        string_val: "gs://superb-avatar-149807-ml/train/1_381_0.tfr"
        string_val: "gs://superb-avatar-149807-ml/train/1_382_0.tfr"
        string_val: "gs://superb-avatar-149807-ml/train/1_383_0.tfr"
        string_val: "gs://superb-avatar-149807-ml/train/1_384_0.tfr"
        string_val: "gs://superb-avatar-149807-ml/train/1_385_0.tfr"
        string_val: "gs://superb-avatar-149807-ml/train/1_386_0.tfr"
        string_val: "gs://superb-avatar-149807-ml/train/1_388_0.tfr"
        string_val: "gs://superb-avatar-149807-ml/train/1_389_0.tfr"
        string_val: "gs://superb-avatar-149807-ml/train/1_38_0.tfr"
        string_val: "gs://superb-avatar-149807-ml/train/1_38_1.tfr"
        string_val: "gs://superb-avatar-149807-ml/train/1_390_0.tfr"
        string_val: "gs://superb-avatar-149807-ml/train/1_391_0.tfr"
        string_val: "gs://superb-avatar-149807-ml/train/1_393_0.tfr"
        string_val: "gs://superb-avatar-149807-ml/train/1_394_0.tfr"
        string_val: "gs://superb-avatar-149807-ml/train/1_395_0.tfr"
        string_val: "gs://superb-avatar-149807-ml/train/1_396_0.tfr"
        string_val: "gs://superb-avatar-149807-ml/train/1_39_0.tfr"
        string_val: "gs://superb-avatar-149807-ml/train/1_39_1.tfr"
        string_val: "gs://superb-avatar-149807-ml/train/1_3_1.tfr"
        string_val: "gs://superb-avatar-149807-ml/train/1_402test_1.tfr"
        string_val: "gs://superb-avatar-149807-ml/train/1_403test_1.tfr"
        string_val: "gs://superb-avatar-149807-ml/train/1_40_0.tfr"
        string_val: "gs://superb-avatar-149807-ml/train/1_40_1.tfr"
        string_val: "gs://superb-avatar-149807-ml/train/1_41_0.tfr"
        string_val: "gs://superb-avatar-149807-ml/train/1_41_1.tfr"
        string_val: "gs://superb-avatar-149807-ml/train/1_42_0.tfr"
        string_val: "gs://superb-avatar-149807-ml/train/1_42_1.tfr"
        string_val: "gs://superb-avatar-149807-ml/train/1_43_0.tfr"
        string_val: "gs://superb-avatar-149807-ml/train/1_43_1.tfr"
        string_val: "gs://superb-avatar-149807-ml/train/1_445_0.tfr"
        string_val: "gs://superb-avatar-149807-ml/train/1_446_0.tfr"
        string_val: "gs://superb-avatar-149807-ml/train/1_447_0.tfr"
        string_val: "gs://superb-avatar-149807-ml/train/1_448_0.tfr"
        string_val: "gs://superb-avatar-149807-ml/train/1_449_0.tfr"
        string_val: "gs://superb-avatar-149807-ml/train/1_44_0.tfr"
        string_val: "gs://superb-avatar-149807-ml/train/1_44_1.tfr"
        string_val: "gs://superb-avatar-149807-ml/train/1_452_0.tfr"
        string_val: "gs://superb-avatar-149807-ml/train/1_453_0.tfr"
        string_val: "gs://superb-avatar-149807-ml/train/1_454_0.tfr"
        string_val: "gs://superb-avatar-149807-ml/train/1_455_0.tfr"
        string_val: "gs://superb-avatar-149807-ml/train/1_456_0.tfr"
        string_val: "gs://superb-avatar-149807-ml/train/1_457_0.tfr"
        string_val: "gs://superb-avatar-149807-ml/train/1_458_0.tfr"
        string_val: "gs://superb-avatar-149807-ml/train/1_459_0.tfr"
        string_val: "gs://superb-avatar-149807-ml/train/1_45_0.tfr"
        string_val: "gs://superb-avatar-149807-ml/train/1_460_0.tfr"
        string_val: "gs://superb-avatar-149807-ml/train/1_460test_1.tfr"
        string_val: "gs://superb-avatar-149807-ml/train/1_461_0.tfr"
        string_val: "gs://superb-avatar-149807-ml/train/1_463_0.tfr"
        string_val: "gs://superb-avatar-149807-ml/train/1_464_0.tfr"
        string_val: "gs://superb-avatar-149807-ml/train/1_466_0.tfr"
        string_val: "gs://superb-avatar-149807-ml/train/1_467_0.tfr"
        string_val: "gs://superb-avatar-149807-ml/train/1_468_0.tfr"
        string_val: "gs://superb-avatar-149807-ml/train/1_46_0.tfr"
        string_val: "gs://superb-avatar-149807-ml/train/1_46_1.tfr"
        string_val: "gs://superb-avatar-149807-ml/train/1_47_1.tfr"
        string_val: "gs://superb-avatar-149807-ml/train/1_48_0.tfr"
        string_val: "gs://superb-avatar-149807-ml/train/1_48_1.tfr"
        string_val: "gs://superb-avatar-149807-ml/train/1_49_0.tfr"
        string_val: "gs://superb-avatar-149807-ml/train/1_4_1.tfr"
        string_val: "gs://superb-avatar-149807-ml/train/1_50_0.tfr"
        string_val: "gs://superb-avatar-149807-ml/train/1_50_1.tfr"
        string_val: "gs://superb-avatar-149807-ml/train/1_514test_1.tfr"
        string_val: "gs://superb-avatar-149807-ml/train/1_517test_1.tfr"
        string_val: "gs://superb-avatar-149807-ml/train/1_518test_1.tfr"
        string_val: "gs://superb-avatar-149807-ml/train/1_51_1.tfr"
        string_val: "gs://superb-avatar-149807-ml/train/1_527test_1.tfr"
        string_val: "gs://superb-avatar-149807-ml/train/1_52_0.tfr"
        string_val: "gs://superb-avatar-149807-ml/train/1_53_0.tfr"
        string_val: "gs://superb-avatar-149807-ml/train/1_53_1.tfr"
        string_val: "gs://superb-avatar-149807-ml/train/1_541test_1.tfr"
        string_val: "gs://superb-avatar-149807-ml/train/1_542test_1.tfr"
        string_val: "gs://superb-avatar-149807-ml/train/1_547_0.tfr"
        string_val: "gs://superb-avatar-149807-ml/train/1_548_0.tfr"
        string_val: "gs://superb-avatar-149807-ml/train/1_549_0.tfr"
        string_val: "gs://superb-avatar-149807-ml/train/1_54_0.tfr"
        string_val: "gs://superb-avatar-149807-ml/train/1_54_1.tfr"
        string_val: "gs://superb-avatar-149807-ml/train/1_550_0.tfr"
        string_val: "gs://superb-avatar-149807-ml/train/1_551_0.tfr"
        string_val: "gs://superb-avatar-149807-ml/train/1_552_0.tfr"
        string_val: "gs://superb-avatar-149807-ml/train/1_554_0.tfr"
        string_val: "gs://superb-avatar-149807-ml/train/1_555_0.tfr"
        string_val: "gs://superb-avatar-149807-ml/train/1_556_0.tfr"
        string_val: "gs://superb-avatar-149807-ml/train/1_557test_1.tfr"
        string_val: "gs://superb-avatar-149807-ml/train/1_558_0.tfr"
        string_val: "gs://superb-avatar-149807-ml/train/1_559_0.tfr"
        string_val: "gs://superb-avatar-149807-ml/train/1_559test_1.tfr"
        string_val: "gs://superb-avatar-149807-ml/train/1_560_0.tfr"
        string_val: "gs://superb-avatar-149807-ml/train/1_561_0.tfr"
        string_val: "gs://superb-avatar-149807-ml/train/1_562_0.tfr"
        string_val: "gs://superb-avatar-149807-ml/train/1_564_0.tfr"
        string_val: "gs://superb-avatar-149807-ml/train/1_565_0.tfr"
        string_val: "gs://superb-avatar-149807-ml/train/1_566_0.tfr"
        string_val: "gs://superb-avatar-149807-ml/train/1_567_0.tfr"
        string_val: "gs://superb-avatar-149807-ml/train/1_568_0.tfr"
        string_val: "gs://superb-avatar-149807-ml/train/1_569_0.tfr"
        string_val: "gs://superb-avatar-149807-ml/train/1_56_1.tfr"
        string_val: "gs://superb-avatar-149807-ml/train/1_570_0.tfr"
        string_val: "gs://superb-avatar-149807-ml/train/1_57_0.tfr"
        string_val: "gs://superb-avatar-149807-ml/train/1_57_1.tfr"
        string_val: "gs://superb-avatar-149807-ml/train/1_584test_1.tfr"
        string_val: "gs://superb-avatar-149807-ml/train/1_585test_1.tfr"
        string_val: "gs://superb-avatar-149807-ml/train/1_586test_1.tfr"
        string_val: "gs://superb-avatar-149807-ml/train/1_58_0.tfr"
        string_val: "gs://superb-avatar-149807-ml/train/1_58_1.tfr"
        string_val: "gs://superb-avatar-149807-ml/train/1_597test_1.tfr"
        string_val: "gs://superb-avatar-149807-ml/train/1_59_0.tfr"
        string_val: "gs://superb-avatar-149807-ml/train/1_59_1.tfr"
        string_val: "gs://superb-avatar-149807-ml/train/1_5_1.tfr"
        string_val: "gs://superb-avatar-149807-ml/train/1_607test_1.tfr"
        string_val: "gs://superb-avatar-149807-ml/train/1_608test_1.tfr"
        string_val: "gs://superb-avatar-149807-ml/train/1_60_0.tfr"
        string_val: "gs://superb-avatar-149807-ml/train/1_60_1.tfr"
        string_val: "gs://superb-avatar-149807-ml/train/1_61_0.tfr"
        string_val: "gs://superb-avatar-149807-ml/train/1_61_1.tfr"
        string_val: "gs://superb-avatar-149807-ml/train/1_625test_1.tfr"
        string_val: "gs://superb-avatar-149807-ml/train/1_62_0.tfr"
        string_val: "gs://superb-avatar-149807-ml/train/1_62_1.tfr"
        string_val: "gs://superb-avatar-149807-ml/train/1_637test_1.tfr"
        string_val: "gs://superb-avatar-149807-ml/train/1_63_0.tfr"
        string_val: "gs://superb-avatar-149807-ml/train/1_649_0.tfr"
        string_val: "gs://superb-avatar-149807-ml/train/1_64_0.tfr"
        string_val: "gs://superb-avatar-149807-ml/train/1_650_0.tfr"
        string_val: "gs://superb-avatar-149807-ml/train/1_651_0.tfr"
        string_val: "gs://superb-avatar-149807-ml/train/1_652_0.tfr"
        string_val: "gs://superb-avatar-149807-ml/train/1_652test_1.tfr"
        string_val: "gs://superb-avatar-149807-ml/train/1_653_0.tfr"
        string_val: "gs://superb-avatar-149807-ml/train/1_654_0.tfr"
        string_val: "gs://superb-avatar-149807-ml/train/1_654test_1.tfr"
        string_val: "gs://superb-avatar-149807-ml/train/1_655_0.tfr"
        string_val: "gs://superb-avatar-149807-ml/train/1_656_0.tfr"
        string_val: "gs://superb-avatar-149807-ml/train/1_657_0.tfr"
        string_val: "gs://superb-avatar-149807-ml/train/1_658_0.tfr"
        string_val: "gs://superb-avatar-149807-ml/train/1_659_0.tfr"
        string_val: "gs://superb-avatar-149807-ml/train/1_661_0.tfr"
        string_val: "gs://superb-avatar-149807-ml/train/1_662_0.tfr"
        string_val: "gs://superb-avatar-149807-ml/train/1_663_0.tfr"
        string_val: "gs://superb-avatar-149807-ml/train/1_664_0.tfr"
        string_val: "gs://superb-avatar-149807-ml/train/1_665_0.tfr"
        string_val: "gs://superb-avatar-149807-ml/train/1_665test_1.tfr"
        string_val: "gs://superb-avatar-149807-ml/train/1_666_0.tfr"
        string_val: "gs://superb-avatar-149807-ml/train/1_667_0.tfr"
        string_val: "gs://superb-avatar-149807-ml/train/1_668_0.tfr"
        string_val: "gs://superb-avatar-149807-ml/train/1_669_0.tfr"
        string_val: "gs://superb-avatar-149807-ml/train/1_66_0.tfr"
        string_val: "gs://superb-avatar-149807-ml/train/1_66_1.tfr"
        string_val: "gs://superb-avatar-149807-ml/train/1_670_0.tfr"
        string_val: "gs://superb-avatar-149807-ml/train/1_671_0.tfr"
        string_val: "gs://superb-avatar-149807-ml/train/1_672_0.tfr"
        string_val: "gs://superb-avatar-149807-ml/train/1_674_0.tfr"
        string_val: "gs://superb-avatar-149807-ml/train/1_675_0.tfr"
        string_val: "gs://superb-avatar-149807-ml/train/1_678_0.tfr"
        string_val: "gs://superb-avatar-149807-ml/train/1_679_0.tfr"
        string_val: "gs://superb-avatar-149807-ml/train/1_67_0.tfr"
        string_val: "gs://superb-avatar-149807-ml/train/1_67_1.tfr"
        string_val: "gs://superb-avatar-149807-ml/train/1_680_0.tfr"
        string_val: "gs://superb-avatar-149807-ml/train/1_681_0.tfr"
        string_val: "gs://superb-avatar-149807-ml/train/1_682_0.tfr"
        string_val: "gs://superb-avatar-149807-ml/train/1_684_0.tfr"
        string_val: "gs://superb-avatar-149807-ml/train/1_685_0.tfr"
        string_val: "gs://superb-avatar-149807-ml/train/1_686_0.tfr"
        string_val: "gs://superb-avatar-149807-ml/train/1_687_0.tfr"
        string_val: "gs://superb-avatar-149807-ml/train/1_68_0.tfr"
        string_val: "gs://superb-avatar-149807-ml/train/1_68_1.tfr"
        string_val: "gs://superb-avatar-149807-ml/train/1_68test_1.tfr"
        string_val: "gs://superb-avatar-149807-ml/train/1_691test_1.tfr"
        string_val: "gs://superb-avatar-149807-ml/train/1_697test_1.tfr"
        string_val: "gs://superb-avatar-149807-ml/train/1_69_0.tfr"
        string_val: "gs://superb-avatar-149807-ml/train/1_69_1.tfr"
        string_val: "gs://superb-avatar-149807-ml/train/1_700test_1.tfr"
        string_val: "gs://superb-avatar-149807-ml/train/1_70_0.tfr"
        string_val: "gs://superb-avatar-149807-ml/train/1_71_0.tfr"
        string_val: "gs://superb-avatar-149807-ml/train/1_71_1.tfr"
        string_val: "gs://superb-avatar-149807-ml/train/1_72_1.tfr"
        string_val: "gs://superb-avatar-149807-ml/train/1_732test_1.tfr"
        string_val: "gs://superb-avatar-149807-ml/train/1_733_0.tfr"
        string_val: "gs://superb-avatar-149807-ml/train/1_734_0.tfr"
        string_val: "gs://superb-avatar-149807-ml/train/1_735_0.tfr"
        string_val: "gs://superb-avatar-149807-ml/train/1_737_0.tfr"
        string_val: "gs://superb-avatar-149807-ml/train/1_738_0.tfr"
        string_val: "gs://superb-avatar-149807-ml/train/1_739_0.tfr"
        string_val: "gs://superb-avatar-149807-ml/train/1_73_1.tfr"
        string_val: "gs://superb-avatar-149807-ml/train/1_740_0.tfr"
        string_val: "gs://superb-avatar-149807-ml/train/1_741_0.tfr"
        string_val: "gs://superb-avatar-149807-ml/train/1_742_0.tfr"
        string_val: "gs://superb-avatar-149807-ml/train/1_743_0.tfr"
        string_val: "gs://superb-avatar-149807-ml/train/1_744_0.tfr"
        string_val: "gs://superb-avatar-149807-ml/train/1_745_0.tfr"
        string_val: "gs://superb-avatar-149807-ml/train/1_746_0.tfr"
        string_val: "gs://superb-avatar-149807-ml/train/1_747_0.tfr"
        string_val: "gs://superb-avatar-149807-ml/train/1_747test_1.tfr"
        string_val: "gs://superb-avatar-149807-ml/train/1_748_0.tfr"
        string_val: "gs://superb-avatar-149807-ml/train/1_749_0.tfr"
        string_val: "gs://superb-avatar-149807-ml/train/1_74_0.tfr"
        string_val: "gs://superb-avatar-149807-ml/train/1_74_1.tfr"
        string_val: "gs://superb-avatar-149807-ml/train/1_751_0.tfr"
        string_val: "gs://superb-avatar-149807-ml/train/1_753_0.tfr"
        string_val: "gs://superb-avatar-149807-ml/train/1_754_0.tfr"
        string_val: "gs://superb-avatar-149807-ml/train/1_754test_1.tfr"
        string_val: "gs://superb-avatar-149807-ml/train/1_755_0.tfr"
        string_val: "gs://superb-avatar-149807-ml/train/1_756_0.tfr"
        string_val: "gs://superb-avatar-149807-ml/train/1_758_0.tfr"
        string_val: "gs://superb-avatar-149807-ml/train/1_759_0.tfr"
        string_val: "gs://superb-avatar-149807-ml/train/1_75_0.tfr"
        string_val: "gs://superb-avatar-149807-ml/train/1_75_1.tfr"
        string_val: "gs://superb-avatar-149807-ml/train/1_761_0.tfr"
        string_val: "gs://superb-avatar-149807-ml/train/1_762_0.tfr"
        string_val: "gs://superb-avatar-149807-ml/train/1_763_0.tfr"
        string_val: "gs://superb-avatar-149807-ml/train/1_764_0.tfr"
        string_val: "gs://superb-avatar-149807-ml/train/1_765_0.tfr"
        string_val: "gs://superb-avatar-149807-ml/train/1_766_0.tfr"
        string_val: "gs://superb-avatar-149807-ml/train/1_767_0.tfr"
        string_val: "gs://superb-avatar-149807-ml/train/1_768_0.tfr"
        string_val: "gs://superb-avatar-149807-ml/train/1_76_0.tfr"
        string_val: "gs://superb-avatar-149807-ml/train/1_76_1.tfr"
        string_val: "gs://superb-avatar-149807-ml/train/1_77_0.tfr"
        string_val: "gs://superb-avatar-149807-ml/train/1_77_1.tfr"
        string_val: "gs://superb-avatar-149807-ml/train/1_78_0.tfr"
        string_val: "gs://superb-avatar-149807-ml/train/1_78_1.tfr"
        string_val: "gs://superb-avatar-149807-ml/train/1_79_0.tfr"
        string_val: "gs://superb-avatar-149807-ml/train/1_79_1.tfr"
        string_val: "gs://superb-avatar-149807-ml/train/1_7_0.tfr"
        string_val: "gs://superb-avatar-149807-ml/train/1_7_1.tfr"
        string_val: "gs://superb-avatar-149807-ml/train/1_803test_1.tfr"
        string_val: "gs://superb-avatar-149807-ml/train/1_80_0.tfr"
        string_val: "gs://superb-avatar-149807-ml/train/1_80_1.tfr"
        string_val: "gs://superb-avatar-149807-ml/train/1_818_0.tfr"
        string_val: "gs://superb-avatar-149807-ml/train/1_81_0.tfr"
        string_val: "gs://superb-avatar-149807-ml/train/1_820_0.tfr"
        string_val: "gs://superb-avatar-149807-ml/train/1_821_0.tfr"
        string_val: "gs://superb-avatar-149807-ml/train/1_822_0.tfr"
        string_val: "gs://superb-avatar-149807-ml/train/1_823_0.tfr"
        string_val: "gs://superb-avatar-149807-ml/train/1_824_0.tfr"
        string_val: "gs://superb-avatar-149807-ml/train/1_825_0.tfr"
        string_val: "gs://superb-avatar-149807-ml/train/1_826_0.tfr"
        string_val: "gs://superb-avatar-149807-ml/train/1_827_0.tfr"
        string_val: "gs://superb-avatar-149807-ml/train/1_828_0.tfr"
        string_val: "gs://superb-avatar-149807-ml/train/1_829_0.tfr"
        string_val: "gs://superb-avatar-149807-ml/train/1_82_0.tfr"
        string_val: "gs://superb-avatar-149807-ml/train/1_82_1.tfr"
        string_val: "gs://superb-avatar-149807-ml/train/1_830_0.tfr"
        string_val: "gs://superb-avatar-149807-ml/train/1_831_0.tfr"
        string_val: "gs://superb-avatar-149807-ml/train/1_832_0.tfr"
        string_val: "gs://superb-avatar-149807-ml/train/1_833_0.tfr"
        string_val: "gs://superb-avatar-149807-ml/train/1_834_0.tfr"
        string_val: "gs://superb-avatar-149807-ml/train/1_836_0.tfr"
        string_val: "gs://superb-avatar-149807-ml/train/1_837_0.tfr"
        string_val: "gs://superb-avatar-149807-ml/train/1_839_0.tfr"
        string_val: "gs://superb-avatar-149807-ml/train/1_83_0.tfr"
        string_val: "gs://superb-avatar-149807-ml/train/1_840_0.tfr"
        string_val: "gs://superb-avatar-149807-ml/train/1_841_0.tfr"
        string_val: "gs://superb-avatar-149807-ml/train/1_842_0.tfr"
        string_val: "gs://superb-avatar-149807-ml/train/1_843_0.tfr"
        string_val: "gs://superb-avatar-149807-ml/train/1_844_0.tfr"
        string_val: "gs://superb-avatar-149807-ml/train/1_845_0.tfr"
        string_val: "gs://superb-avatar-149807-ml/train/1_846_0.tfr"
        string_val: "gs://superb-avatar-149807-ml/train/1_84_0.tfr"
        string_val: "gs://superb-avatar-149807-ml/train/1_84_1.tfr"
        string_val: "gs://superb-avatar-149807-ml/train/1_85_0.tfr"
        string_val: "gs://superb-avatar-149807-ml/train/1_85_1.tfr"
        string_val: "gs://superb-avatar-149807-ml/train/1_862test_1.tfr"
        string_val: "gs://superb-avatar-149807-ml/train/1_86_0.tfr"
        string_val: "gs://superb-avatar-149807-ml/train/1_86_1.tfr"
        string_val: "gs://superb-avatar-149807-ml/train/1_87_0.tfr"
        string_val: "gs://superb-avatar-149807-ml/train/1_883_0.tfr"
        string_val: "gs://superb-avatar-149807-ml/train/1_884_0.tfr"
        string_val: "gs://superb-avatar-149807-ml/train/1_885_0.tfr"
        string_val: "gs://superb-avatar-149807-ml/train/1_886_0.tfr"
        string_val: "gs://superb-avatar-149807-ml/train/1_889_0.tfr"
        string_val: "gs://superb-avatar-149807-ml/train/1_88_1.tfr"
        string_val: "gs://superb-avatar-149807-ml/train/1_890_0.tfr"
        string_val: "gs://superb-avatar-149807-ml/train/1_891_0.tfr"
        string_val: "gs://superb-avatar-149807-ml/train/1_892_0.tfr"
        string_val: "gs://superb-avatar-149807-ml/train/1_893_0.tfr"
        string_val: "gs://superb-avatar-149807-ml/train/1_894_0.tfr"
        string_val: "gs://superb-avatar-149807-ml/train/1_895_0.tfr"
        string_val: "gs://superb-avatar-149807-ml/train/1_896_0.tfr"
        string_val: "gs://superb-avatar-149807-ml/train/1_897_0.tfr"
        string_val: "gs://superb-avatar-149807-ml/train/1_898_0.tfr"
        string_val: "gs://superb-avatar-149807-ml/train/1_89_0.tfr"
        string_val: "gs://superb-avatar-149807-ml/train/1_89_1.tfr"
        string_val: "gs://superb-avatar-149807-ml/train/1_8_0.tfr"
        string_val: "gs://superb-avatar-149807-ml/train/1_8test_1.tfr"
        string_val: "gs://superb-avatar-149807-ml/train/1_901_0.tfr"
        string_val: "gs://superb-avatar-149807-ml/train/1_903_0.tfr"
        string_val: "gs://superb-avatar-149807-ml/train/1_904_0.tfr"
        string_val: "gs://superb-avatar-149807-ml/train/1_905_0.tfr"
        string_val: "gs://superb-avatar-149807-ml/train/1_906_0.tfr"
        string_val: "gs://superb-avatar-149807-ml/train/1_90_0.tfr"
        string_val: "gs://superb-avatar-149807-ml/train/1_90_1.tfr"
        string_val: "gs://superb-avatar-149807-ml/train/1_91_1.tfr"
        string_val: "gs://superb-avatar-149807-ml/train/1_92_0.tfr"
        string_val: "gs://superb-avatar-149807-ml/train/1_92_1.tfr"
        string_val: "gs://superb-avatar-149807-ml/train/1_937_0.tfr"
        string_val: "gs://superb-avatar-149807-ml/train/1_938_0.tfr"
        string_val: "gs://superb-avatar-149807-ml/train/1_939_0.tfr"
        string_val: "gs://superb-avatar-149807-ml/train/1_93_0.tfr"
        string_val: "gs://superb-avatar-149807-ml/train/1_943_0.tfr"
        string_val: "gs://superb-avatar-149807-ml/train/1_945_0.tfr"
        string_val: "gs://superb-avatar-149807-ml/train/1_946_0.tfr"
        string_val: "gs://superb-avatar-149807-ml/train/1_949_0.tfr"
        string_val: "gs://superb-avatar-149807-ml/train/1_950_0.tfr"
        string_val: "gs://superb-avatar-149807-ml/train/1_951_0.tfr"
        string_val: "gs://superb-avatar-149807-ml/train/1_952_0.tfr"
        string_val: "gs://superb-avatar-149807-ml/train/1_953_0.tfr"
        string_val: "gs://superb-avatar-149807-ml/train/1_954_0.tfr"
        string_val: "gs://superb-avatar-149807-ml/train/1_955_0.tfr"
        string_val: "gs://superb-avatar-149807-ml/train/1_956_0.tfr"
        string_val: "gs://superb-avatar-149807-ml/train/1_957_0.tfr"
        string_val: "gs://superb-avatar-149807-ml/train/1_958_0.tfr"
        string_val: "gs://superb-avatar-149807-ml/train/1_95_0.tfr"
        string_val: "gs://superb-avatar-149807-ml/train/1_95_1.tfr"
        string_val: "gs://superb-avatar-149807-ml/train/1_961_0.tfr"
        string_val: "gs://superb-avatar-149807-ml/train/1_962_0.tfr"
        string_val: "gs://superb-avatar-149807-ml/train/1_964_0.tfr"
        string_val: "gs://superb-avatar-149807-ml/train/1_965_0.tfr"
        string_val: "gs://superb-avatar-149807-ml/train/1_966_0.tfr"
        string_val: "gs://superb-avatar-149807-ml/train/1_968_0.tfr"
        string_val: "gs://superb-avatar-149807-ml/train/1_969_0.tfr"
        string_val: "gs://superb-avatar-149807-ml/train/1_96_1.tfr"
        string_val: "gs://superb-avatar-149807-ml/train/1_970_0.tfr"
        string_val: "gs://superb-avatar-149807-ml/train/1_971_0.tfr"
        string_val: "gs://superb-avatar-149807-ml/train/1_972_0.tfr"
        string_val: "gs://superb-avatar-149807-ml/train/1_973_0.tfr"
        string_val: "gs://superb-avatar-149807-ml/train/1_974_0.tfr"
        string_val: "gs://superb-avatar-149807-ml/train/1_975_0.tfr"
        string_val: "gs://superb-avatar-149807-ml/train/1_976_0.tfr"
        string_val: "gs://superb-avatar-149807-ml/train/1_976test_1.tfr"
        string_val: "gs://superb-avatar-149807-ml/train/1_979_0.tfr"
        string_val: "gs://superb-avatar-149807-ml/train/1_981_0.tfr"
        string_val: "gs://superb-avatar-149807-ml/train/1_982_0.tfr"
        string_val: "gs://superb-avatar-149807-ml/train/1_983_0.tfr"
        string_val: "gs://superb-avatar-149807-ml/train/1_984_0.tfr"
        string_val: "gs://superb-avatar-149807-ml/train/1_98_0.tfr"
        string_val: "gs://superb-avatar-149807-ml/train/1_98_1.tfr"
        string_val: "gs://superb-avatar-149807-ml/train/1_99_0.tfr"
        string_val: "gs://superb-avatar-149807-ml/train/1_99_1.tfr"
        string_val: "gs://superb-avatar-149807-ml/train/1_9_1.tfr"
        string_val: "gs://superb-avatar-149807-ml/train/2_1000_0.tfr"
        string_val: "gs://superb-avatar-149807-ml/train/2_1001_0.tfr"
        string_val: "gs://superb-avatar-149807-ml/train/2_1003_0.tfr"
        string_val: "gs://superb-avatar-149807-ml/train/2_1004test_1.tfr"
        string_val: "gs://superb-avatar-149807-ml/train/2_1005_0.tfr"
        string_val: "gs://superb-avatar-149807-ml/train/2_1006_0.tfr"
        string_val: "gs://superb-avatar-149807-ml/train/2_1007_0.tfr"
        string_val: "gs://superb-avatar-149807-ml/train/2_1008_0.tfr"
        string_val: "gs://superb-avatar-149807-ml/train/2_1009_0.tfr"
        string_val: "gs://superb-avatar-149807-ml/train/2_100_1.tfr"
        string_val: "gs://superb-avatar-149807-ml/train/2_1015_0.tfr"
        string_val: "gs://superb-avatar-149807-ml/train/2_1015test_1.tfr"
        string_val: "gs://superb-avatar-149807-ml/train/2_1016_0.tfr"
        string_val: "gs://superb-avatar-149807-ml/train/2_1017_0.tfr"
        string_val: "gs://superb-avatar-149807-ml/train/2_1018_0.tfr"
        string_val: "gs://superb-avatar-149807-ml/train/2_1019_0.tfr"
        string_val: "gs://superb-avatar-149807-ml/train/2_101_0.tfr"
        string_val: "gs://superb-avatar-149807-ml/train/2_101_1.tfr"
        string_val: "gs://superb-avatar-149807-ml/train/2_1020_0.tfr"
        string_val: "gs://superb-avatar-149807-ml/train/2_1021_0.tfr"
        string_val: "gs://superb-avatar-149807-ml/train/2_1022_0.tfr"
        string_val: "gs://superb-avatar-149807-ml/train/2_1023_0.tfr"
        string_val: "gs://superb-avatar-149807-ml/train/2_1024_0.tfr"
        string_val: "gs://superb-avatar-149807-ml/train/2_1025_0.tfr"
        string_val: "gs://superb-avatar-149807-ml/train/2_1026_0.tfr"
        string_val: "gs://superb-avatar-149807-ml/train/2_1027_0.tfr"
        string_val: "gs://superb-avatar-149807-ml/train/2_1028_0.tfr"
        string_val: "gs://superb-avatar-149807-ml/train/2_1029_0.tfr"
        string_val: "gs://superb-avatar-149807-ml/train/2_102_1.tfr"
        string_val: "gs://superb-avatar-149807-ml/train/2_1030_0.tfr"
        string_val: "gs://superb-avatar-149807-ml/train/2_1031_0.tfr"
        string_val: "gs://superb-avatar-149807-ml/train/2_1032_0.tfr"
        string_val: "gs://superb-avatar-149807-ml/train/2_1033_0.tfr"
        string_val: "gs://superb-avatar-149807-ml/train/2_1035_0.tfr"
        string_val: "gs://superb-avatar-149807-ml/train/2_1036_0.tfr"
        string_val: "gs://superb-avatar-149807-ml/train/2_1037_0.tfr"
        string_val: "gs://superb-avatar-149807-ml/train/2_1038_0.tfr"
        string_val: "gs://superb-avatar-149807-ml/train/2_1039_0.tfr"
        string_val: "gs://superb-avatar-149807-ml/train/2_103_1.tfr"
        string_val: "gs://superb-avatar-149807-ml/train/2_103test_1.tfr"
        string_val: "gs://superb-avatar-149807-ml/train/2_1041_0.tfr"
        string_val: "gs://superb-avatar-149807-ml/train/2_1042_0.tfr"
        string_val: "gs://superb-avatar-149807-ml/train/2_1044_0.tfr"
        string_val: "gs://superb-avatar-149807-ml/train/2_1045_0.tfr"
        string_val: "gs://superb-avatar-149807-ml/train/2_1046_0.tfr"
        string_val: "gs://superb-avatar-149807-ml/train/2_1047_0.tfr"
        string_val: "gs://superb-avatar-149807-ml/train/2_1048_0.tfr"
        string_val: "gs://superb-avatar-149807-ml/train/2_1049_0.tfr"
        string_val: "gs://superb-avatar-149807-ml/train/2_104_0.tfr"
        string_val: "gs://superb-avatar-149807-ml/train/2_104_1.tfr"
        string_val: "gs://superb-avatar-149807-ml/train/2_1050_0.tfr"
        string_val: "gs://superb-avatar-149807-ml/train/2_1051_0.tfr"
        string_val: "gs://superb-avatar-149807-ml/train/2_1052_0.tfr"
        string_val: "gs://superb-avatar-149807-ml/train/2_1053_0.tfr"
        string_val: "gs://superb-avatar-149807-ml/train/2_1054_0.tfr"
        string_val: "gs://superb-avatar-149807-ml/train/2_1055_0.tfr"
        string_val: "gs://superb-avatar-149807-ml/train/2_1057_0.tfr"
        string_val: "gs://superb-avatar-149807-ml/train/2_1058_0.tfr"
        string_val: "gs://superb-avatar-149807-ml/train/2_1059_0.tfr"
        string_val: "gs://superb-avatar-149807-ml/train/2_105_0.tfr"
        string_val: "gs://superb-avatar-149807-ml/train/2_105_1.tfr"
        string_val: "gs://superb-avatar-149807-ml/train/2_1060_0.tfr"
        string_val: "gs://superb-avatar-149807-ml/train/2_1061_0.tfr"
        string_val: "gs://superb-avatar-149807-ml/train/2_1062_0.tfr"
        string_val: "gs://superb-avatar-149807-ml/train/2_1063_0.tfr"
        string_val: "gs://superb-avatar-149807-ml/train/2_1064_0.tfr"
        string_val: "gs://superb-avatar-149807-ml/train/2_1067_0.tfr"
        string_val: "gs://superb-avatar-149807-ml/train/2_1068_0.tfr"
        string_val: "gs://superb-avatar-149807-ml/train/2_1069_0.tfr"
        string_val: "gs://superb-avatar-149807-ml/train/2_106_1.tfr"
        string_val: "gs://superb-avatar-149807-ml/train/2_1070_0.tfr"
        string_val: "gs://superb-avatar-149807-ml/train/2_1071_0.tfr"
        string_val: "gs://superb-avatar-149807-ml/train/2_1072_0.tfr"
        string_val: "gs://superb-avatar-149807-ml/train/2_1073_0.tfr"
        string_val: "gs://superb-avatar-149807-ml/train/2_1074_0.tfr"
        string_val: "gs://superb-avatar-149807-ml/train/2_1075_0.tfr"
        string_val: "gs://superb-avatar-149807-ml/train/2_1077_0.tfr"
        string_val: "gs://superb-avatar-149807-ml/train/2_1078_0.tfr"
        string_val: "gs://superb-avatar-149807-ml/train/2_107_0.tfr"
        string_val: "gs://superb-avatar-149807-ml/train/2_107_1.tfr"
        string_val: "gs://superb-avatar-149807-ml/train/2_1080_0.tfr"
        string_val: "gs://superb-avatar-149807-ml/train/2_1082_0.tfr"
        string_val: "gs://superb-avatar-149807-ml/train/2_1083_0.tfr"
        string_val: "gs://superb-avatar-149807-ml/train/2_1084_0.tfr"
        string_val: "gs://superb-avatar-149807-ml/train/2_1085_0.tfr"
        string_val: "gs://superb-avatar-149807-ml/train/2_1086_0.tfr"
        string_val: "gs://superb-avatar-149807-ml/train/2_1087_0.tfr"
        string_val: "gs://superb-avatar-149807-ml/train/2_1088_0.tfr"
        string_val: "gs://superb-avatar-149807-ml/train/2_108_0.tfr"
        string_val: "gs://superb-avatar-149807-ml/train/2_108_1.tfr"
        string_val: "gs://superb-avatar-149807-ml/train/2_1090_0.tfr"
        string_val: "gs://superb-avatar-149807-ml/train/2_1091_0.tfr"
        string_val: "gs://superb-avatar-149807-ml/train/2_1092_0.tfr"
        string_val: "gs://superb-avatar-149807-ml/train/2_1094_0.tfr"
        string_val: "gs://superb-avatar-149807-ml/train/2_1095_0.tfr"
        string_val: "gs://superb-avatar-149807-ml/train/2_1096_0.tfr"
        string_val: "gs://superb-avatar-149807-ml/train/2_1097_0.tfr"
        string_val: "gs://superb-avatar-149807-ml/train/2_1098_0.tfr"
        string_val: "gs://superb-avatar-149807-ml/train/2_1099_0.tfr"
        string_val: "gs://superb-avatar-149807-ml/train/2_109_0.tfr"
        string_val: "gs://superb-avatar-149807-ml/train/2_109_1.tfr"
        string_val: "gs://superb-avatar-149807-ml/train/2_10_0.tfr"
        string_val: "gs://superb-avatar-149807-ml/train/2_10_1.tfr"
        string_val: "gs://superb-avatar-149807-ml/train/2_1100_0.tfr"
        string_val: "gs://superb-avatar-149807-ml/train/2_1101_0.tfr"
        string_val: "gs://superb-avatar-149807-ml/train/2_1102_0.tfr"
        string_val: "gs://superb-avatar-149807-ml/train/2_1103_0.tfr"
        string_val: "gs://superb-avatar-149807-ml/train/2_1104_0.tfr"
        string_val: "gs://superb-avatar-149807-ml/train/2_1105_0.tfr"
        string_val: "gs://superb-avatar-149807-ml/train/2_1106_0.tfr"
        string_val: "gs://superb-avatar-149807-ml/train/2_1107_0.tfr"
        string_val: "gs://superb-avatar-149807-ml/train/2_1108_0.tfr"
        string_val: "gs://superb-avatar-149807-ml/train/2_1109_0.tfr"
        string_val: "gs://superb-avatar-149807-ml/train/2_110_0.tfr"
        string_val: "gs://superb-avatar-149807-ml/train/2_1110_0.tfr"
        string_val: "gs://superb-avatar-149807-ml/train/2_1111_0.tfr"
        string_val: "gs://superb-avatar-149807-ml/train/2_1112_0.tfr"
        string_val: "gs://superb-avatar-149807-ml/train/2_1113_0.tfr"
        string_val: "gs://superb-avatar-149807-ml/train/2_1114_0.tfr"
        string_val: "gs://superb-avatar-149807-ml/train/2_1115_0.tfr"
        string_val: "gs://superb-avatar-149807-ml/train/2_1116_0.tfr"
        string_val: "gs://superb-avatar-149807-ml/train/2_1117_0.tfr"
        string_val: "gs://superb-avatar-149807-ml/train/2_1118_0.tfr"
        string_val: "gs://superb-avatar-149807-ml/train/2_1119_0.tfr"
        string_val: "gs://superb-avatar-149807-ml/train/2_111_0.tfr"
        string_val: "gs://superb-avatar-149807-ml/train/2_111_1.tfr"
        string_val: "gs://superb-avatar-149807-ml/train/2_1120_0.tfr"
        string_val: "gs://superb-avatar-149807-ml/train/2_1121_0.tfr"
        string_val: "gs://superb-avatar-149807-ml/train/2_1122_0.tfr"
        string_val: "gs://superb-avatar-149807-ml/train/2_1123_0.tfr"
        string_val: "gs://superb-avatar-149807-ml/train/2_1125_0.tfr"
        string_val: "gs://superb-avatar-149807-ml/train/2_1126_0.tfr"
        string_val: "gs://superb-avatar-149807-ml/train/2_1127_0.tfr"
        string_val: "gs://superb-avatar-149807-ml/train/2_1128_0.tfr"
        string_val: "gs://superb-avatar-149807-ml/train/2_112_0.tfr"
        string_val: "gs://superb-avatar-149807-ml/train/2_112_1.tfr"
        string_val: "gs://superb-avatar-149807-ml/train/2_1130_0.tfr"
        string_val: "gs://superb-avatar-149807-ml/train/2_1131_0.tfr"
        string_val: "gs://superb-avatar-149807-ml/train/2_1133_0.tfr"
        string_val: "gs://superb-avatar-149807-ml/train/2_1134_0.tfr"
        string_val: "gs://superb-avatar-149807-ml/train/2_1135_0.tfr"
        string_val: "gs://superb-avatar-149807-ml/train/2_1136_0.tfr"
        string_val: "gs://superb-avatar-149807-ml/train/2_1138_0.tfr"
        string_val: "gs://superb-avatar-149807-ml/train/2_1139_0.tfr"
        string_val: "gs://superb-avatar-149807-ml/train/2_113_0.tfr"
        string_val: "gs://superb-avatar-149807-ml/train/2_113_1.tfr"
        string_val: "gs://superb-avatar-149807-ml/train/2_1140_0.tfr"
        string_val: "gs://superb-avatar-149807-ml/train/2_1141_0.tfr"
        string_val: "gs://superb-avatar-149807-ml/train/2_1143_0.tfr"
        string_val: "gs://superb-avatar-149807-ml/train/2_1144_0.tfr"
        string_val: "gs://superb-avatar-149807-ml/train/2_1145_0.tfr"
        string_val: "gs://superb-avatar-149807-ml/train/2_1146_0.tfr"
        string_val: "gs://superb-avatar-149807-ml/train/2_1148_0.tfr"
        string_val: "gs://superb-avatar-149807-ml/train/2_1149_0.tfr"
        string_val: "gs://superb-avatar-149807-ml/train/2_114_1.tfr"
        string_val: "gs://superb-avatar-149807-ml/train/2_1150_0.tfr"
        string_val: "gs://superb-avatar-149807-ml/train/2_1151_0.tfr"
        string_val: "gs://superb-avatar-149807-ml/train/2_1152_0.tfr"
        string_val: "gs://superb-avatar-149807-ml/train/2_1153_0.tfr"
        string_val: "gs://superb-avatar-149807-ml/train/2_1156_0.tfr"
        string_val: "gs://superb-avatar-149807-ml/train/2_1157_0.tfr"
        string_val: "gs://superb-avatar-149807-ml/train/2_1158_0.tfr"
        string_val: "gs://superb-avatar-149807-ml/train/2_1159_0.tfr"
        string_val: "gs://superb-avatar-149807-ml/train/2_115_0.tfr"
        string_val: "gs://superb-avatar-149807-ml/train/2_115_1.tfr"
        string_val: "gs://superb-avatar-149807-ml/train/2_1160_0.tfr"
        string_val: "gs://superb-avatar-149807-ml/train/2_1161_0.tfr"
        string_val: "gs://superb-avatar-149807-ml/train/2_1162_0.tfr"
        string_val: "gs://superb-avatar-149807-ml/train/2_1163_0.tfr"
        string_val: "gs://superb-avatar-149807-ml/train/2_1164_0.tfr"
        string_val: "gs://superb-avatar-149807-ml/train/2_1165_0.tfr"
        string_val: "gs://superb-avatar-149807-ml/train/2_1166_0.tfr"
        string_val: "gs://superb-avatar-149807-ml/train/2_1167_0.tfr"
        string_val: "gs://superb-avatar-149807-ml/train/2_1168_0.tfr"
        string_val: "gs://superb-avatar-149807-ml/train/2_116_0.tfr"
        string_val: "gs://superb-avatar-149807-ml/train/2_116_1.tfr"
        string_val: "gs://superb-avatar-149807-ml/train/2_1170_0.tfr"
        string_val: "gs://superb-avatar-149807-ml/train/2_1171_0.tfr"
        string_val: "gs://superb-avatar-149807-ml/train/2_1172_0.tfr"
        string_val: "gs://superb-avatar-149807-ml/train/2_1173_0.tfr"
        string_val: "gs://superb-avatar-149807-ml/train/2_1174_0.tfr"
        string_val: "gs://superb-avatar-149807-ml/train/2_1175_0.tfr"
        string_val: "gs://superb-avatar-149807-ml/train/2_1176_0.tfr"
        string_val: "gs://superb-avatar-149807-ml/train/2_1177_0.tfr"
        string_val: "gs://superb-avatar-149807-ml/train/2_1179_0.tfr"
        string_val: "gs://superb-avatar-149807-ml/train/2_117_0.tfr"
        string_val: "gs://superb-avatar-149807-ml/train/2_117_1.tfr"
        string_val: "gs://superb-avatar-149807-ml/train/2_1180_0.tfr"
        string_val: "gs://superb-avatar-149807-ml/train/2_1181_0.tfr"
        string_val: "gs://superb-avatar-149807-ml/train/2_1182_0.tfr"
        string_val: "gs://superb-avatar-149807-ml/train/2_1184_0.tfr"
        string_val: "gs://superb-avatar-149807-ml/train/2_1185_0.tfr"
        string_val: "gs://superb-avatar-149807-ml/train/2_1186_0.tfr"
        string_val: "gs://superb-avatar-149807-ml/train/2_1187_0.tfr"
        string_val: "gs://superb-avatar-149807-ml/train/2_1188_0.tfr"
        string_val: "gs://superb-avatar-149807-ml/train/2_1189_0.tfr"
        string_val: "gs://superb-avatar-149807-ml/train/2_118_0.tfr"
        string_val: "gs://superb-avatar-149807-ml/train/2_118_1.tfr"
        string_val: "gs://superb-avatar-149807-ml/train/2_1190_0.tfr"
        string_val: "gs://superb-avatar-149807-ml/train/2_1191_0.tfr"
        string_val: "gs://superb-avatar-149807-ml/train/2_1192_0.tfr"
        string_val: "gs://superb-avatar-149807-ml/train/2_1193_0.tfr"
        string_val: "gs://superb-avatar-149807-ml/train/2_1194_0.tfr"
        string_val: "gs://superb-avatar-149807-ml/train/2_1195_0.tfr"
        string_val: "gs://superb-avatar-149807-ml/train/2_1196_0.tfr"
        string_val: "gs://superb-avatar-149807-ml/train/2_1197_0.tfr"
        string_val: "gs://superb-avatar-149807-ml/train/2_1199_0.tfr"
        string_val: "gs://superb-avatar-149807-ml/train/2_119_0.tfr"
        string_val: "gs://superb-avatar-149807-ml/train/2_119_1.tfr"
        string_val: "gs://superb-avatar-149807-ml/train/2_11_0.tfr"
        string_val: "gs://superb-avatar-149807-ml/train/2_11_1.tfr"
        string_val: "gs://superb-avatar-149807-ml/train/2_1200_0.tfr"
        string_val: "gs://superb-avatar-149807-ml/train/2_1201_0.tfr"
        string_val: "gs://superb-avatar-149807-ml/train/2_1202_0.tfr"
        string_val: "gs://superb-avatar-149807-ml/train/2_1203_0.tfr"
        string_val: "gs://superb-avatar-149807-ml/train/2_1205_0.tfr"
        string_val: "gs://superb-avatar-149807-ml/train/2_1207_0.tfr"
        string_val: "gs://superb-avatar-149807-ml/train/2_1208_0.tfr"
        string_val: "gs://superb-avatar-149807-ml/train/2_120_0.tfr"
        string_val: "gs://superb-avatar-149807-ml/train/2_1210_0.tfr"
        string_val: "gs://superb-avatar-149807-ml/train/2_1211_0.tfr"
        string_val: "gs://superb-avatar-149807-ml/train/2_1212_0.tfr"
        string_val: "gs://superb-avatar-149807-ml/train/2_1213_0.tfr"
        string_val: "gs://superb-avatar-149807-ml/train/2_1214_0.tfr"
        string_val: "gs://superb-avatar-149807-ml/train/2_1215_0.tfr"
        string_val: "gs://superb-avatar-149807-ml/train/2_1216_0.tfr"
        string_val: "gs://superb-avatar-149807-ml/train/2_1217_0.tfr"
        string_val: "gs://superb-avatar-149807-ml/train/2_1218_0.tfr"
        string_val: "gs://superb-avatar-149807-ml/train/2_1219_0.tfr"
        string_val: "gs://superb-avatar-149807-ml/train/2_121_0.tfr"
        string_val: "gs://superb-avatar-149807-ml/train/2_121_1.tfr"
        string_val: "gs://superb-avatar-149807-ml/train/2_1222_0.tfr"
        string_val: "gs://superb-avatar-149807-ml/train/2_1224_0.tfr"
        string_val: "gs://superb-avatar-149807-ml/train/2_1225_0.tfr"
        string_val: "gs://superb-avatar-149807-ml/train/2_1226_0.tfr"
        string_val: "gs://superb-avatar-149807-ml/train/2_1227_0.tfr"
        string_val: "gs://superb-avatar-149807-ml/train/2_1229_0.tfr"
        string_val: "gs://superb-avatar-149807-ml/train/2_122_0.tfr"
        string_val: "gs://superb-avatar-149807-ml/train/2_122_1.tfr"
        string_val: "gs://superb-avatar-149807-ml/train/2_1230_0.tfr"
        string_val: "gs://superb-avatar-149807-ml/train/2_1231_0.tfr"
        string_val: "gs://superb-avatar-149807-ml/train/2_1232_0.tfr"
        string_val: "gs://superb-avatar-149807-ml/train/2_1233_0.tfr"
        string_val: "gs://superb-avatar-149807-ml/train/2_1234_0.tfr"
        string_val: "gs://superb-avatar-149807-ml/train/2_1235_0.tfr"
        string_val: "gs://superb-avatar-149807-ml/train/2_1236_0.tfr"
        string_val: "gs://superb-avatar-149807-ml/train/2_1239_0.tfr"
        string_val: "gs://superb-avatar-149807-ml/train/2_123_0.tfr"
        string_val: "gs://superb-avatar-149807-ml/train/2_123_1.tfr"
        string_val: "gs://superb-avatar-149807-ml/train/2_1240_0.tfr"
        string_val: "gs://superb-avatar-149807-ml/train/2_1241_0.tfr"
        string_val: "gs://superb-avatar-149807-ml/train/2_1242_0.tfr"
        string_val: "gs://superb-avatar-149807-ml/train/2_1243_0.tfr"
        string_val: "gs://superb-avatar-149807-ml/train/2_1244_0.tfr"
        string_val: "gs://superb-avatar-149807-ml/train/2_1246_0.tfr"
        string_val: "gs://superb-avatar-149807-ml/train/2_1247_0.tfr"
        string_val: "gs://superb-avatar-149807-ml/train/2_1248_0.tfr"
        string_val: "gs://superb-avatar-149807-ml/train/2_1249_0.tfr"
        string_val: "gs://superb-avatar-149807-ml/train/2_124_0.tfr"
        string_val: "gs://superb-avatar-149807-ml/train/2_1250_0.tfr"
        string_val: "gs://superb-avatar-149807-ml/train/2_1251_0.tfr"
        string_val: "gs://superb-avatar-149807-ml/train/2_1253_0.tfr"
        string_val: "gs://superb-avatar-149807-ml/train/2_1255_0.tfr"
        string_val: "gs://superb-avatar-149807-ml/train/2_1257_0.tfr"
        string_val: "gs://superb-avatar-149807-ml/train/2_1258_0.tfr"
        string_val: "gs://superb-avatar-149807-ml/train/2_1259test_1.tfr"
        string_val: "gs://superb-avatar-149807-ml/train/2_125_0.tfr"
        string_val: "gs://superb-avatar-149807-ml/train/2_125_1.tfr"
        string_val: "gs://superb-avatar-149807-ml/train/2_1260_0.tfr"
        string_val: "gs://superb-avatar-149807-ml/train/2_1261_0.tfr"
        string_val: "gs://superb-avatar-149807-ml/train/2_1262_0.tfr"
        string_val: "gs://superb-avatar-149807-ml/train/2_1263_0.tfr"
        string_val: "gs://superb-avatar-149807-ml/train/2_1264_0.tfr"
        string_val: "gs://superb-avatar-149807-ml/train/2_1265_0.tfr"
        string_val: "gs://superb-avatar-149807-ml/train/2_1267_0.tfr"
        string_val: "gs://superb-avatar-149807-ml/train/2_1268_0.tfr"
        string_val: "gs://superb-avatar-149807-ml/train/2_1269_0.tfr"
        string_val: "gs://superb-avatar-149807-ml/train/2_126_0.tfr"
        string_val: "gs://superb-avatar-149807-ml/train/2_126_1.tfr"
        string_val: "gs://superb-avatar-149807-ml/train/2_1270_0.tfr"
        string_val: "gs://superb-avatar-149807-ml/train/2_1272_0.tfr"
        string_val: "gs://superb-avatar-149807-ml/train/2_1274_0.tfr"
        string_val: "gs://superb-avatar-149807-ml/train/2_1275_0.tfr"
        string_val: "gs://superb-avatar-149807-ml/train/2_1276_0.tfr"
        string_val: "gs://superb-avatar-149807-ml/train/2_1277_0.tfr"
        string_val: "gs://superb-avatar-149807-ml/train/2_1278_0.tfr"
        string_val: "gs://superb-avatar-149807-ml/train/2_127_0.tfr"
        string_val: "gs://superb-avatar-149807-ml/train/2_127_1.tfr"
        string_val: "gs://superb-avatar-149807-ml/train/2_1280_0.tfr"
        string_val: "gs://superb-avatar-149807-ml/train/2_1281_0.tfr"
        string_val: "gs://superb-avatar-149807-ml/train/2_1282_0.tfr"
        string_val: "gs://superb-avatar-149807-ml/train/2_1283_0.tfr"
        string_val: "gs://superb-avatar-149807-ml/train/2_1286_0.tfr"
        string_val: "gs://superb-avatar-149807-ml/train/2_1287_0.tfr"
        string_val: "gs://superb-avatar-149807-ml/train/2_1287test_1.tfr"
        string_val: "gs://superb-avatar-149807-ml/train/2_1288_0.tfr"
        string_val: "gs://superb-avatar-149807-ml/train/2_128_0.tfr"
        string_val: "gs://superb-avatar-149807-ml/train/2_128_1.tfr"
        string_val: "gs://superb-avatar-149807-ml/train/2_1291_0.tfr"
        string_val: "gs://superb-avatar-149807-ml/train/2_1292_0.tfr"
        string_val: "gs://superb-avatar-149807-ml/train/2_1292test_1.tfr"
        string_val: "gs://superb-avatar-149807-ml/train/2_1293_0.tfr"
        string_val: "gs://superb-avatar-149807-ml/train/2_1294_0.tfr"
        string_val: "gs://superb-avatar-149807-ml/train/2_1295_0.tfr"
        string_val: "gs://superb-avatar-149807-ml/train/2_1297_0.tfr"
        string_val: "gs://superb-avatar-149807-ml/train/2_1298_0.tfr"
        string_val: "gs://superb-avatar-149807-ml/train/2_129_0.tfr"
        string_val: "gs://superb-avatar-149807-ml/train/2_129_1.tfr"
        string_val: "gs://superb-avatar-149807-ml/train/2_1300_0.tfr"
        string_val: "gs://superb-avatar-149807-ml/train/2_1301_0.tfr"
        string_val: "gs://superb-avatar-149807-ml/train/2_1301test_1.tfr"
        string_val: "gs://superb-avatar-149807-ml/train/2_1302_0.tfr"
        string_val: "gs://superb-avatar-149807-ml/train/2_1303_0.tfr"
        string_val: "gs://superb-avatar-149807-ml/train/2_1304_0.tfr"
        string_val: "gs://superb-avatar-149807-ml/train/2_1305_0.tfr"
        string_val: "gs://superb-avatar-149807-ml/train/2_1306_0.tfr"
        string_val: "gs://superb-avatar-149807-ml/train/2_1307_0.tfr"
        string_val: "gs://superb-avatar-149807-ml/train/2_1308_0.tfr"
        string_val: "gs://superb-avatar-149807-ml/train/2_1309_0.tfr"
        string_val: "gs://superb-avatar-149807-ml/train/2_130_0.tfr"
        string_val: "gs://superb-avatar-149807-ml/train/2_130_1.tfr"
        string_val: "gs://superb-avatar-149807-ml/train/2_1310_0.tfr"
        string_val: "gs://superb-avatar-149807-ml/train/2_1311_0.tfr"
        string_val: "gs://superb-avatar-149807-ml/train/2_1312_0.tfr"
        string_val: "gs://superb-avatar-149807-ml/train/2_1313_0.tfr"
        string_val: "gs://superb-avatar-149807-ml/train/2_1314_0.tfr"
        string_val: "gs://superb-avatar-149807-ml/train/2_1315_0.tfr"
        string_val: "gs://superb-avatar-149807-ml/train/2_1317_0.tfr"
        string_val: "gs://superb-avatar-149807-ml/train/2_1318_0.tfr"
        string_val: "gs://superb-avatar-149807-ml/train/2_1319_0.tfr"
        string_val: "gs://superb-avatar-149807-ml/train/2_131_0.tfr"
        string_val: "gs://superb-avatar-149807-ml/train/2_131_1.tfr"
        string_val: "gs://superb-avatar-149807-ml/train/2_1321_0.tfr"
        string_val: "gs://superb-avatar-149807-ml/train/2_1321test_1.tfr"
        string_val: "gs://superb-avatar-149807-ml/train/2_1322_0.tfr"
        string_val: "gs://superb-avatar-149807-ml/train/2_1323_0.tfr"
        string_val: "gs://superb-avatar-149807-ml/train/2_1324_0.tfr"
        string_val: "gs://superb-avatar-149807-ml/train/2_1325_0.tfr"
        string_val: "gs://superb-avatar-149807-ml/train/2_1326_0.tfr"
        string_val: "gs://superb-avatar-149807-ml/train/2_1327_0.tfr"
        string_val: "gs://superb-avatar-149807-ml/train/2_1328_0.tfr"
        string_val: "gs://superb-avatar-149807-ml/train/2_1329_0.tfr"
        string_val: "gs://superb-avatar-149807-ml/train/2_132_0.tfr"
        string_val: "gs://superb-avatar-149807-ml/train/2_132_1.tfr"
        string_val: "gs://superb-avatar-149807-ml/train/2_1330_0.tfr"
        string_val: "gs://superb-avatar-149807-ml/train/2_1331_0.tfr"
        string_val: "gs://superb-avatar-149807-ml/train/2_1332_0.tfr"
        string_val: "gs://superb-avatar-149807-ml/train/2_1333_0.tfr"
        string_val: "gs://superb-avatar-149807-ml/train/2_1334_0.tfr"
        string_val: "gs://superb-avatar-149807-ml/train/2_1335_0.tfr"
        string_val: "gs://superb-avatar-149807-ml/train/2_1336_0.tfr"
        string_val: "gs://superb-avatar-149807-ml/train/2_1339_0.tfr"
        string_val: "gs://superb-avatar-149807-ml/train/2_133_0.tfr"
        string_val: "gs://superb-avatar-149807-ml/train/2_133_1.tfr"
        string_val: "gs://superb-avatar-149807-ml/train/2_1341_0.tfr"
        string_val: "gs://superb-avatar-149807-ml/train/2_1342_0.tfr"
        string_val: "gs://superb-avatar-149807-ml/train/2_1343_0.tfr"
        string_val: "gs://superb-avatar-149807-ml/train/2_1344_0.tfr"
        string_val: "gs://superb-avatar-149807-ml/train/2_1345_0.tfr"
        string_val: "gs://superb-avatar-149807-ml/train/2_1346_0.tfr"
        string_val: "gs://superb-avatar-149807-ml/train/2_1348_0.tfr"
        string_val: "gs://superb-avatar-149807-ml/train/2_1349_0.tfr"
        string_val: "gs://superb-avatar-149807-ml/train/2_134_0.tfr"
        string_val: "gs://superb-avatar-149807-ml/train/2_134_1.tfr"
        string_val: "gs://superb-avatar-149807-ml/train/2_1353_0.tfr"
        string_val: "gs://superb-avatar-149807-ml/train/2_1354_0.tfr"
        string_val: "gs://superb-avatar-149807-ml/train/2_1355_0.tfr"
        string_val: "gs://superb-avatar-149807-ml/train/2_1356_0.tfr"
        string_val: "gs://superb-avatar-149807-ml/train/2_1357_0.tfr"
        string_val: "gs://superb-avatar-149807-ml/train/2_1358_0.tfr"
        string_val: "gs://superb-avatar-149807-ml/train/2_1359_0.tfr"
        string_val: "gs://superb-avatar-149807-ml/train/2_135_0.tfr"
        string_val: "gs://superb-avatar-149807-ml/train/2_135_1.tfr"
        string_val: "gs://superb-avatar-149807-ml/train/2_1361_0.tfr"
        string_val: "gs://superb-avatar-149807-ml/train/2_1362_0.tfr"
        string_val: "gs://superb-avatar-149807-ml/train/2_1363_0.tfr"
        string_val: "gs://superb-avatar-149807-ml/train/2_1366_0.tfr"
        string_val: "gs://superb-avatar-149807-ml/train/2_1367_0.tfr"
        string_val: "gs://superb-avatar-149807-ml/train/2_1368_0.tfr"
        string_val: "gs://superb-avatar-149807-ml/train/2_136_0.tfr"
        string_val: "gs://superb-avatar-149807-ml/train/2_1370_0.tfr"
        string_val: "gs://superb-avatar-149807-ml/train/2_1371_0.tfr"
        string_val: "gs://superb-avatar-149807-ml/train/2_1372_0.tfr"
        string_val: "gs://superb-avatar-149807-ml/train/2_1373_0.tfr"
        string_val: "gs://superb-avatar-149807-ml/train/2_1374_0.tfr"
        string_val: "gs://superb-avatar-149807-ml/train/2_1376_0.tfr"
        string_val: "gs://superb-avatar-149807-ml/train/2_1378_0.tfr"
        string_val: "gs://superb-avatar-149807-ml/train/2_1379_0.tfr"
        string_val: "gs://superb-avatar-149807-ml/train/2_137_0.tfr"
        string_val: "gs://superb-avatar-149807-ml/train/2_137_1.tfr"
        string_val: "gs://superb-avatar-149807-ml/train/2_1380_0.tfr"
        string_val: "gs://superb-avatar-149807-ml/train/2_1383_0.tfr"
        string_val: "gs://superb-avatar-149807-ml/train/2_1384_0.tfr"
        string_val: "gs://superb-avatar-149807-ml/train/2_1385_0.tfr"
        string_val: "gs://superb-avatar-149807-ml/train/2_1385test_1.tfr"
        string_val: "gs://superb-avatar-149807-ml/train/2_1387_0.tfr"
        string_val: "gs://superb-avatar-149807-ml/train/2_1389_0.tfr"
        string_val: "gs://superb-avatar-149807-ml/train/2_138_0.tfr"
        string_val: "gs://superb-avatar-149807-ml/train/2_138_1.tfr"
        string_val: "gs://superb-avatar-149807-ml/train/2_1390_0.tfr"
        string_val: "gs://superb-avatar-149807-ml/train/2_1391_0.tfr"
        string_val: "gs://superb-avatar-149807-ml/train/2_1392_0.tfr"
        string_val: "gs://superb-avatar-149807-ml/train/2_1393_0.tfr"
        string_val: "gs://superb-avatar-149807-ml/train/2_1395_0.tfr"
        string_val: "gs://superb-avatar-149807-ml/train/2_1398_0.tfr"
        string_val: "gs://superb-avatar-149807-ml/train/2_1399_0.tfr"
        string_val: "gs://superb-avatar-149807-ml/train/2_13_0.tfr"
        string_val: "gs://superb-avatar-149807-ml/train/2_13_1.tfr"
        string_val: "gs://superb-avatar-149807-ml/train/2_1400_0.tfr"
        string_val: "gs://superb-avatar-149807-ml/train/2_1401_0.tfr"
        string_val: "gs://superb-avatar-149807-ml/train/2_1402_0.tfr"
        string_val: "gs://superb-avatar-149807-ml/train/2_1403_0.tfr"
        string_val: "gs://superb-avatar-149807-ml/train/2_1404_0.tfr"
        string_val: "gs://superb-avatar-149807-ml/train/2_1406_0.tfr"
        string_val: "gs://superb-avatar-149807-ml/train/2_1407_0.tfr"
        string_val: "gs://superb-avatar-149807-ml/train/2_1409_0.tfr"
        string_val: "gs://superb-avatar-149807-ml/train/2_140_1.tfr"
        string_val: "gs://superb-avatar-149807-ml/train/2_1410_0.tfr"
        string_val: "gs://superb-avatar-149807-ml/train/2_1411_0.tfr"
        string_val: "gs://superb-avatar-149807-ml/train/2_1413_0.tfr"
        string_val: "gs://superb-avatar-149807-ml/train/2_1414_0.tfr"
        string_val: "gs://superb-avatar-149807-ml/train/2_1417_0.tfr"
        string_val: "gs://superb-avatar-149807-ml/train/2_1418_0.tfr"
        string_val: "gs://superb-avatar-149807-ml/train/2_141_0.tfr"
        string_val: "gs://superb-avatar-149807-ml/train/2_141_1.tfr"
        string_val: "gs://superb-avatar-149807-ml/train/2_1421_0.tfr"
        string_val: "gs://superb-avatar-149807-ml/train/2_142_0.tfr"
        string_val: "gs://superb-avatar-149807-ml/train/2_143_0.tfr"
        string_val: "gs://superb-avatar-149807-ml/train/2_1447_0.tfr"
        string_val: "gs://superb-avatar-149807-ml/train/2_1449_0.tfr"
        string_val: "gs://superb-avatar-149807-ml/train/2_144_0.tfr"
        string_val: "gs://superb-avatar-149807-ml/train/2_144_1.tfr"
        string_val: "gs://superb-avatar-149807-ml/train/2_1451_0.tfr"
        string_val: "gs://superb-avatar-149807-ml/train/2_1452_0.tfr"
        string_val: "gs://superb-avatar-149807-ml/train/2_1453_0.tfr"
        string_val: "gs://superb-avatar-149807-ml/train/2_1454_0.tfr"
        string_val: "gs://superb-avatar-149807-ml/train/2_1454test_1.tfr"
        string_val: "gs://superb-avatar-149807-ml/train/2_1457_0.tfr"
        string_val: "gs://superb-avatar-149807-ml/train/2_1458_0.tfr"
        string_val: "gs://superb-avatar-149807-ml/train/2_145_0.tfr"
        string_val: "gs://superb-avatar-149807-ml/train/2_145_1.tfr"
        string_val: "gs://superb-avatar-149807-ml/train/2_1477_0.tfr"
        string_val: "gs://superb-avatar-149807-ml/train/2_1478_0.tfr"
        string_val: "gs://superb-avatar-149807-ml/train/2_1479_0.tfr"
        string_val: "gs://superb-avatar-149807-ml/train/2_147_0.tfr"
        string_val: "gs://superb-avatar-149807-ml/train/2_1480_0.tfr"
        string_val: "gs://superb-avatar-149807-ml/train/2_1481_0.tfr"
        string_val: "gs://superb-avatar-149807-ml/train/2_1483_0.tfr"
        string_val: "gs://superb-avatar-149807-ml/train/2_1484_0.tfr"
        string_val: "gs://superb-avatar-149807-ml/train/2_1486_0.tfr"
        string_val: "gs://superb-avatar-149807-ml/train/2_1487_0.tfr"
        string_val: "gs://superb-avatar-149807-ml/train/2_1488_0.tfr"
        string_val: "gs://superb-avatar-149807-ml/train/2_1489_0.tfr"
        string_val: "gs://superb-avatar-149807-ml/train/2_148_0.tfr"
        string_val: "gs://superb-avatar-149807-ml/train/2_148_1.tfr"
        string_val: "gs://superb-avatar-149807-ml/train/2_1491_0.tfr"
        string_val: "gs://superb-avatar-149807-ml/train/2_1492_0.tfr"
        string_val: "gs://superb-avatar-149807-ml/train/2_1494_0.tfr"
        string_val: "gs://superb-avatar-149807-ml/train/2_1495_0.tfr"
        string_val: "gs://superb-avatar-149807-ml/train/2_1496_0.tfr"
        string_val: "gs://superb-avatar-149807-ml/train/2_1499_0.tfr"
        string_val: "gs://superb-avatar-149807-ml/train/2_149_0.tfr"
        string_val: "gs://superb-avatar-149807-ml/train/2_14_1.tfr"
        string_val: "gs://superb-avatar-149807-ml/train/2_1500_0.tfr"
        string_val: "gs://superb-avatar-149807-ml/train/2_1501_0.tfr"
        string_val: "gs://superb-avatar-149807-ml/train/2_1502_0.tfr"
        string_val: "gs://superb-avatar-149807-ml/train/2_1503_0.tfr"
        string_val: "gs://superb-avatar-149807-ml/train/2_1504_0.tfr"
        string_val: "gs://superb-avatar-149807-ml/train/2_1505_0.tfr"
        string_val: "gs://superb-avatar-149807-ml/train/2_1506_0.tfr"
        string_val: "gs://superb-avatar-149807-ml/train/2_1507_0.tfr"
        string_val: "gs://superb-avatar-149807-ml/train/2_1508_0.tfr"
        string_val: "gs://superb-avatar-149807-ml/train/2_1509_0.tfr"
        string_val: "gs://superb-avatar-149807-ml/train/2_150_0.tfr"
        string_val: "gs://superb-avatar-149807-ml/train/2_1510_0.tfr"
        string_val: "gs://superb-avatar-149807-ml/train/2_1511_0.tfr"
        string_val: "gs://superb-avatar-149807-ml/train/2_1512_0.tfr"
        string_val: "gs://superb-avatar-149807-ml/train/2_1513_0.tfr"
        string_val: "gs://superb-avatar-149807-ml/train/2_1514_0.tfr"
        string_val: "gs://superb-avatar-149807-ml/train/2_1515_0.tfr"
        string_val: "gs://superb-avatar-149807-ml/train/2_1516_0.tfr"
        string_val: "gs://superb-avatar-149807-ml/train/2_1517_0.tfr"
        string_val: "gs://superb-avatar-149807-ml/train/2_1518_0.tfr"
        string_val: "gs://superb-avatar-149807-ml/train/2_1519_0.tfr"
        string_val: "gs://superb-avatar-149807-ml/train/2_151_0.tfr"
        string_val: "gs://superb-avatar-149807-ml/train/2_1521_0.tfr"
        string_val: "gs://superb-avatar-149807-ml/train/2_1523_0.tfr"
        string_val: "gs://superb-avatar-149807-ml/train/2_1524_0.tfr"
        string_val: "gs://superb-avatar-149807-ml/train/2_1524test_1.tfr"
        string_val: "gs://superb-avatar-149807-ml/train/2_1525_0.tfr"
        string_val: "gs://superb-avatar-149807-ml/train/2_1526_0.tfr"
        string_val: "gs://superb-avatar-149807-ml/train/2_1527_0.tfr"
        string_val: "gs://superb-avatar-149807-ml/train/2_1528_0.tfr"
        string_val: "gs://superb-avatar-149807-ml/train/2_1532_0.tfr"
        string_val: "gs://superb-avatar-149807-ml/train/2_1533_0.tfr"
        string_val: "gs://superb-avatar-149807-ml/train/2_1534_0.tfr"
        string_val: "gs://superb-avatar-149807-ml/train/2_1535_0.tfr"
        string_val: "gs://superb-avatar-149807-ml/train/2_1536_0.tfr"
        string_val: "gs://superb-avatar-149807-ml/train/2_1537_0.tfr"
        string_val: "gs://superb-avatar-149807-ml/train/2_1538_0.tfr"
        string_val: "gs://superb-avatar-149807-ml/train/2_1538test_1.tfr"
        string_val: "gs://superb-avatar-149807-ml/train/2_1539_0.tfr"
        string_val: "gs://superb-avatar-149807-ml/train/2_1540_0.tfr"
        string_val: "gs://superb-avatar-149807-ml/train/2_1540test_1.tfr"
        string_val: "gs://superb-avatar-149807-ml/train/2_1541_0.tfr"
        string_val: "gs://superb-avatar-149807-ml/train/2_1542_0.tfr"
        string_val: "gs://superb-avatar-149807-ml/train/2_1544_0.tfr"
        string_val: "gs://superb-avatar-149807-ml/train/2_1545_0.tfr"
        string_val: "gs://superb-avatar-149807-ml/train/2_1546_0.tfr"
        string_val: "gs://superb-avatar-149807-ml/train/2_1547_0.tfr"
        string_val: "gs://superb-avatar-149807-ml/train/2_1548_0.tfr"
        string_val: "gs://superb-avatar-149807-ml/train/2_1550_0.tfr"
        string_val: "gs://superb-avatar-149807-ml/train/2_1551_0.tfr"
        string_val: "gs://superb-avatar-149807-ml/train/2_1552_0.tfr"
        string_val: "gs://superb-avatar-149807-ml/train/2_1553_0.tfr"
        string_val: "gs://superb-avatar-149807-ml/train/2_1554_0.tfr"
        string_val: "gs://superb-avatar-149807-ml/train/2_1555_0.tfr"
        string_val: "gs://superb-avatar-149807-ml/train/2_1557_0.tfr"
        string_val: "gs://superb-avatar-149807-ml/train/2_1559_0.tfr"
        string_val: "gs://superb-avatar-149807-ml/train/2_155_0.tfr"
        string_val: "gs://superb-avatar-149807-ml/train/2_1560_0.tfr"
        string_val: "gs://superb-avatar-149807-ml/train/2_1561_0.tfr"
        string_val: "gs://superb-avatar-149807-ml/train/2_1562_0.tfr"
        string_val: "gs://superb-avatar-149807-ml/train/2_1563_0.tfr"
        string_val: "gs://superb-avatar-149807-ml/train/2_1564_0.tfr"
        string_val: "gs://superb-avatar-149807-ml/train/2_1565_0.tfr"
        string_val: "gs://superb-avatar-149807-ml/train/2_1566_0.tfr"
        string_val: "gs://superb-avatar-149807-ml/train/2_1567_0.tfr"
        string_val: "gs://superb-avatar-149807-ml/train/2_1568_0.tfr"
        string_val: "gs://superb-avatar-149807-ml/train/2_1569_0.tfr"
        string_val: "gs://superb-avatar-149807-ml/train/2_156_0.tfr"
        string_val: "gs://superb-avatar-149807-ml/train/2_1570_0.tfr"
        string_val: "gs://superb-avatar-149807-ml/train/2_1571_0.tfr"
        string_val: "gs://superb-avatar-149807-ml/train/2_1572_0.tfr"
        string_val: "gs://superb-avatar-149807-ml/train/2_1573_0.tfr"
        string_val: "gs://superb-avatar-149807-ml/train/2_1574_0.tfr"
        string_val: "gs://superb-avatar-149807-ml/train/2_1575_0.tfr"
        string_val: "gs://superb-avatar-149807-ml/train/2_1577_0.tfr"
        string_val: "gs://superb-avatar-149807-ml/train/2_1578_0.tfr"
        string_val: "gs://superb-avatar-149807-ml/train/2_1579_0.tfr"
        string_val: "gs://superb-avatar-149807-ml/train/2_157_0.tfr"
        string_val: "gs://superb-avatar-149807-ml/train/2_1581_0.tfr"
        string_val: "gs://superb-avatar-149807-ml/train/2_1582_0.tfr"
        string_val: "gs://superb-avatar-149807-ml/train/2_1583_0.tfr"
        string_val: "gs://superb-avatar-149807-ml/train/2_1584_0.tfr"
        string_val: "gs://superb-avatar-149807-ml/train/2_1585_0.tfr"
        string_val: "gs://superb-avatar-149807-ml/train/2_1586_0.tfr"
        string_val: "gs://superb-avatar-149807-ml/train/2_1587_0.tfr"
        string_val: "gs://superb-avatar-149807-ml/train/2_1589_0.tfr"
        string_val: "gs://superb-avatar-149807-ml/train/2_158_0.tfr"
        string_val: "gs://superb-avatar-149807-ml/train/2_1590_0.tfr"
        string_val: "gs://superb-avatar-149807-ml/train/2_1593_0.tfr"
        string_val: "gs://superb-avatar-149807-ml/train/2_1594_0.tfr"
        string_val: "gs://superb-avatar-149807-ml/train/2_1598_0.tfr"
        string_val: "gs://superb-avatar-149807-ml/train/2_1599_0.tfr"
        string_val: "gs://superb-avatar-149807-ml/train/2_159_0.tfr"
        string_val: "gs://superb-avatar-149807-ml/train/2_15_0.tfr"
        string_val: "gs://superb-avatar-149807-ml/train/2_1600_0.tfr"
        string_val: "gs://superb-avatar-149807-ml/train/2_1602_0.tfr"
        string_val: "gs://superb-avatar-149807-ml/train/2_160_0.tfr"
        string_val: "gs://superb-avatar-149807-ml/train/2_1616_0.tfr"
        string_val: "gs://superb-avatar-149807-ml/train/2_1617_0.tfr"
        string_val: "gs://superb-avatar-149807-ml/train/2_161_0.tfr"
        string_val: "gs://superb-avatar-149807-ml/train/2_1620_0.tfr"
        string_val: "gs://superb-avatar-149807-ml/train/2_1621_0.tfr"
        string_val: "gs://superb-avatar-149807-ml/train/2_1622_0.tfr"
        string_val: "gs://superb-avatar-149807-ml/train/2_1623_0.tfr"
        string_val: "gs://superb-avatar-149807-ml/train/2_1624_0.tfr"
        string_val: "gs://superb-avatar-149807-ml/train/2_1625_0.tfr"
        string_val: "gs://superb-avatar-149807-ml/train/2_1626_0.tfr"
        string_val: "gs://superb-avatar-149807-ml/train/2_1627_0.tfr"
        string_val: "gs://superb-avatar-149807-ml/train/2_1628_0.tfr"
        string_val: "gs://superb-avatar-149807-ml/train/2_1629_0.tfr"
        string_val: "gs://superb-avatar-149807-ml/train/2_162_0.tfr"
        string_val: "gs://superb-avatar-149807-ml/train/2_1630_0.tfr"
        string_val: "gs://superb-avatar-149807-ml/train/2_1632_0.tfr"
        string_val: "gs://superb-avatar-149807-ml/train/2_1634_0.tfr"
        string_val: "gs://superb-avatar-149807-ml/train/2_1635_0.tfr"
        string_val: "gs://superb-avatar-149807-ml/train/2_1636_0.tfr"
        string_val: "gs://superb-avatar-149807-ml/train/2_1637_0.tfr"
        string_val: "gs://superb-avatar-149807-ml/train/2_1638_0.tfr"
        string_val: "gs://superb-avatar-149807-ml/train/2_1639_0.tfr"
        string_val: "gs://superb-avatar-149807-ml/train/2_163_0.tfr"
        string_val: "gs://superb-avatar-149807-ml/train/2_1640_0.tfr"
        string_val: "gs://superb-avatar-149807-ml/train/2_1642_0.tfr"
        string_val: "gs://superb-avatar-149807-ml/train/2_1643_0.tfr"
        string_val: "gs://superb-avatar-149807-ml/train/2_1644_0.tfr"
        string_val: "gs://superb-avatar-149807-ml/train/2_1646_0.tfr"
        string_val: "gs://superb-avatar-149807-ml/train/2_1647_0.tfr"
        string_val: "gs://superb-avatar-149807-ml/train/2_1648_0.tfr"
        string_val: "gs://superb-avatar-149807-ml/train/2_1649_0.tfr"
        string_val: "gs://superb-avatar-149807-ml/train/2_164_0.tfr"
        string_val: "gs://superb-avatar-149807-ml/train/2_1650_0.tfr"
        string_val: "gs://superb-avatar-149807-ml/train/2_1651_0.tfr"
        string_val: "gs://superb-avatar-149807-ml/train/2_1652_0.tfr"
        string_val: "gs://superb-avatar-149807-ml/train/2_1653_0.tfr"
        string_val: "gs://superb-avatar-149807-ml/train/2_1654_0.tfr"
        string_val: "gs://superb-avatar-149807-ml/train/2_1655_0.tfr"
        string_val: "gs://superb-avatar-149807-ml/train/2_1656_0.tfr"
        string_val: "gs://superb-avatar-149807-ml/train/2_1657_0.tfr"
        string_val: "gs://superb-avatar-149807-ml/train/2_1658_0.tfr"
        string_val: "gs://superb-avatar-149807-ml/train/2_1659_0.tfr"
        string_val: "gs://superb-avatar-149807-ml/train/2_1660_0.tfr"
        string_val: "gs://superb-avatar-149807-ml/train/2_1661_0.tfr"
        string_val: "gs://superb-avatar-149807-ml/train/2_1662_0.tfr"
        string_val: "gs://superb-avatar-149807-ml/train/2_1663_0.tfr"
        string_val: "gs://superb-avatar-149807-ml/train/2_1665_0.tfr"
        string_val: "gs://superb-avatar-149807-ml/train/2_1668_0.tfr"
        string_val: "gs://superb-avatar-149807-ml/train/2_1669_0.tfr"
        string_val: "gs://superb-avatar-149807-ml/train/2_166_0.tfr"
        string_val: "gs://superb-avatar-149807-ml/train/2_1670_0.tfr"
        string_val: "gs://superb-avatar-149807-ml/train/2_1671_0.tfr"
        string_val: "gs://superb-avatar-149807-ml/train/2_1672_0.tfr"
        string_val: "gs://superb-avatar-149807-ml/train/2_1673_0.tfr"
        string_val: "gs://superb-avatar-149807-ml/train/2_1674_0.tfr"
        string_val: "gs://superb-avatar-149807-ml/train/2_1676_0.tfr"
        string_val: "gs://superb-avatar-149807-ml/train/2_1677_0.tfr"
        string_val: "gs://superb-avatar-149807-ml/train/2_1678_0.tfr"
        string_val: "gs://superb-avatar-149807-ml/train/2_1679_0.tfr"
        string_val: "gs://superb-avatar-149807-ml/train/2_167_0.tfr"
        string_val: "gs://superb-avatar-149807-ml/train/2_1680_0.tfr"
        string_val: "gs://superb-avatar-149807-ml/train/2_1699_0.tfr"
        string_val: "gs://superb-avatar-149807-ml/train/2_169_0.tfr"
        string_val: "gs://superb-avatar-149807-ml/train/2_16_1.tfr"
        string_val: "gs://superb-avatar-149807-ml/train/2_1700_0.tfr"
        string_val: "gs://superb-avatar-149807-ml/train/2_1701_0.tfr"
        string_val: "gs://superb-avatar-149807-ml/train/2_1702_0.tfr"
        string_val: "gs://superb-avatar-149807-ml/train/2_1703_0.tfr"
        string_val: "gs://superb-avatar-149807-ml/train/2_1704_0.tfr"
        string_val: "gs://superb-avatar-149807-ml/train/2_1705_0.tfr"
        string_val: "gs://superb-avatar-149807-ml/train/2_1707_0.tfr"
        string_val: "gs://superb-avatar-149807-ml/train/2_1708_0.tfr"
        string_val: "gs://superb-avatar-149807-ml/train/2_170_0.tfr"
        string_val: "gs://superb-avatar-149807-ml/train/2_1711_0.tfr"
        string_val: "gs://superb-avatar-149807-ml/train/2_1714_0.tfr"
        string_val: "gs://superb-avatar-149807-ml/train/2_1716_0.tfr"
        string_val: "gs://superb-avatar-149807-ml/train/2_1718_0.tfr"
        string_val: "gs://superb-avatar-149807-ml/train/2_1719_0.tfr"
        string_val: "gs://superb-avatar-149807-ml/train/2_171_0.tfr"
        string_val: "gs://superb-avatar-149807-ml/train/2_1721_0.tfr"
        string_val: "gs://superb-avatar-149807-ml/train/2_1722_0.tfr"
        string_val: "gs://superb-avatar-149807-ml/train/2_1724_0.tfr"
        string_val: "gs://superb-avatar-149807-ml/train/2_1725_0.tfr"
        string_val: "gs://superb-avatar-149807-ml/train/2_1726_0.tfr"
        string_val: "gs://superb-avatar-149807-ml/train/2_1727_0.tfr"
        string_val: "gs://superb-avatar-149807-ml/train/2_1729_0.tfr"
        string_val: "gs://superb-avatar-149807-ml/train/2_172_0.tfr"
        string_val: "gs://superb-avatar-149807-ml/train/2_1730_0.tfr"
        string_val: "gs://superb-avatar-149807-ml/train/2_1730test_1.tfr"
        string_val: "gs://superb-avatar-149807-ml/train/2_1731_0.tfr"
        string_val: "gs://superb-avatar-149807-ml/train/2_1732_0.tfr"
        string_val: "gs://superb-avatar-149807-ml/train/2_1733_0.tfr"
        string_val: "gs://superb-avatar-149807-ml/train/2_1736_0.tfr"
        string_val: "gs://superb-avatar-149807-ml/train/2_1737_0.tfr"
        string_val: "gs://superb-avatar-149807-ml/train/2_1738_0.tfr"
        string_val: "gs://superb-avatar-149807-ml/train/2_173_0.tfr"
        string_val: "gs://superb-avatar-149807-ml/train/2_1740_0.tfr"
        string_val: "gs://superb-avatar-149807-ml/train/2_1741_0.tfr"
        string_val: "gs://superb-avatar-149807-ml/train/2_1742_0.tfr"
        string_val: "gs://superb-avatar-149807-ml/train/2_1743_0.tfr"
        string_val: "gs://superb-avatar-149807-ml/train/2_1745_0.tfr"
        string_val: "gs://superb-avatar-149807-ml/train/2_1746_0.tfr"
        string_val: "gs://superb-avatar-149807-ml/train/2_1747_0.tfr"
        string_val: "gs://superb-avatar-149807-ml/train/2_1749_0.tfr"
        string_val: "gs://superb-avatar-149807-ml/train/2_174_0.tfr"
        string_val: "gs://superb-avatar-149807-ml/train/2_1750_0.tfr"
        string_val: "gs://superb-avatar-149807-ml/train/2_1751_0.tfr"
        string_val: "gs://superb-avatar-149807-ml/train/2_1752_0.tfr"
        string_val: "gs://superb-avatar-149807-ml/train/2_1754_0.tfr"
        string_val: "gs://superb-avatar-149807-ml/train/2_1755_0.tfr"
        string_val: "gs://superb-avatar-149807-ml/train/2_1756_0.tfr"
        string_val: "gs://superb-avatar-149807-ml/train/2_1757_0.tfr"
        string_val: "gs://superb-avatar-149807-ml/train/2_1758_0.tfr"
        string_val: "gs://superb-avatar-149807-ml/train/2_175_0.tfr"
        string_val: "gs://superb-avatar-149807-ml/train/2_176_0.tfr"
        string_val: "gs://superb-avatar-149807-ml/train/2_177_0.tfr"
        string_val: "gs://superb-avatar-149807-ml/train/2_178_0.tfr"
        string_val: "gs://superb-avatar-149807-ml/train/2_1796_0.tfr"
        string_val: "gs://superb-avatar-149807-ml/train/2_1797_0.tfr"
        string_val: "gs://superb-avatar-149807-ml/train/2_1798_0.tfr"
        string_val: "gs://superb-avatar-149807-ml/train/2_179_0.tfr"
        string_val: "gs://superb-avatar-149807-ml/train/2_17_0.tfr"
        string_val: "gs://superb-avatar-149807-ml/train/2_17_1.tfr"
        string_val: "gs://superb-avatar-149807-ml/train/2_1800_0.tfr"
        string_val: "gs://superb-avatar-149807-ml/train/2_1801_0.tfr"
        string_val: "gs://superb-avatar-149807-ml/train/2_1802_0.tfr"
        string_val: "gs://superb-avatar-149807-ml/train/2_1803_0.tfr"
        string_val: "gs://superb-avatar-149807-ml/train/2_1804_0.tfr"
        string_val: "gs://superb-avatar-149807-ml/train/2_1806_0.tfr"
        string_val: "gs://superb-avatar-149807-ml/train/2_1807_0.tfr"
        string_val: "gs://superb-avatar-149807-ml/train/2_1808_0.tfr"
        string_val: "gs://superb-avatar-149807-ml/train/2_1809_0.tfr"
        string_val: "gs://superb-avatar-149807-ml/train/2_180_0.tfr"
        string_val: "gs://superb-avatar-149807-ml/train/2_1810_0.tfr"
        string_val: "gs://superb-avatar-149807-ml/train/2_1812_0.tfr"
        string_val: "gs://superb-avatar-149807-ml/train/2_1813_0.tfr"
        string_val: "gs://superb-avatar-149807-ml/train/2_1814_0.tfr"
        string_val: "gs://superb-avatar-149807-ml/train/2_1815_0.tfr"
        string_val: "gs://superb-avatar-149807-ml/train/2_1816_0.tfr"
        string_val: "gs://superb-avatar-149807-ml/train/2_1817_0.tfr"
        string_val: "gs://superb-avatar-149807-ml/train/2_1818_0.tfr"
        string_val: "gs://superb-avatar-149807-ml/train/2_1819_0.tfr"
        string_val: "gs://superb-avatar-149807-ml/train/2_1820_0.tfr"
        string_val: "gs://superb-avatar-149807-ml/train/2_1822_0.tfr"
        string_val: "gs://superb-avatar-149807-ml/train/2_1823_0.tfr"
        string_val: "gs://superb-avatar-149807-ml/train/2_1825_0.tfr"
        string_val: "gs://superb-avatar-149807-ml/train/2_1826_0.tfr"
        string_val: "gs://superb-avatar-149807-ml/train/2_1827_0.tfr"
        string_val: "gs://superb-avatar-149807-ml/train/2_1829_0.tfr"
        string_val: "gs://superb-avatar-149807-ml/train/2_182_0.tfr"
        string_val: "gs://superb-avatar-149807-ml/train/2_1830_0.tfr"
        string_val: "gs://superb-avatar-149807-ml/train/2_1831_0.tfr"
        string_val: "gs://superb-avatar-149807-ml/train/2_1834_0.tfr"
        string_val: "gs://superb-avatar-149807-ml/train/2_1835_0.tfr"
        string_val: "gs://superb-avatar-149807-ml/train/2_1836_0.tfr"
        string_val: "gs://superb-avatar-149807-ml/train/2_1837_0.tfr"
        string_val: "gs://superb-avatar-149807-ml/train/2_1838_0.tfr"
        string_val: "gs://superb-avatar-149807-ml/train/2_1839_0.tfr"
        string_val: "gs://superb-avatar-149807-ml/train/2_183_0.tfr"
        string_val: "gs://superb-avatar-149807-ml/train/2_1840_0.tfr"
        string_val: "gs://superb-avatar-149807-ml/train/2_1841_0.tfr"
        string_val: "gs://superb-avatar-149807-ml/train/2_1842_0.tfr"
        string_val: "gs://superb-avatar-149807-ml/train/2_1844_0.tfr"
        string_val: "gs://superb-avatar-149807-ml/train/2_1845_0.tfr"
        string_val: "gs://superb-avatar-149807-ml/train/2_1846_0.tfr"
        string_val: "gs://superb-avatar-149807-ml/train/2_1848_0.tfr"
        string_val: "gs://superb-avatar-149807-ml/train/2_184_0.tfr"
        string_val: "gs://superb-avatar-149807-ml/train/2_1850_0.tfr"
        string_val: "gs://superb-avatar-149807-ml/train/2_1851_0.tfr"
        string_val: "gs://superb-avatar-149807-ml/train/2_1852_0.tfr"
        string_val: "gs://superb-avatar-149807-ml/train/2_1853_0.tfr"
        string_val: "gs://superb-avatar-149807-ml/train/2_1854_0.tfr"
        string_val: "gs://superb-avatar-149807-ml/train/2_1855_0.tfr"
        string_val: "gs://superb-avatar-149807-ml/train/2_1856_0.tfr"
        string_val: "gs://superb-avatar-149807-ml/train/2_1859_0.tfr"
        string_val: "gs://superb-avatar-149807-ml/train/2_185_0.tfr"
        string_val: "gs://superb-avatar-149807-ml/train/2_1860_0.tfr"
        string_val: "gs://superb-avatar-149807-ml/train/2_1861_0.tfr"
        string_val: "gs://superb-avatar-149807-ml/train/2_1862_0.tfr"
        string_val: "gs://superb-avatar-149807-ml/train/2_1863_0.tfr"
        string_val: "gs://superb-avatar-149807-ml/train/2_1865_0.tfr"
        string_val: "gs://superb-avatar-149807-ml/train/2_1867_0.tfr"
        string_val: "gs://superb-avatar-149807-ml/train/2_1868_0.tfr"
        string_val: "gs://superb-avatar-149807-ml/train/2_1869_0.tfr"
        string_val: "gs://superb-avatar-149807-ml/train/2_186_0.tfr"
        string_val: "gs://superb-avatar-149807-ml/train/2_1870_0.tfr"
        string_val: "gs://superb-avatar-149807-ml/train/2_1871_0.tfr"
        string_val: "gs://superb-avatar-149807-ml/train/2_1873_0.tfr"
        string_val: "gs://superb-avatar-149807-ml/train/2_1874_0.tfr"
        string_val: "gs://superb-avatar-149807-ml/train/2_1875_0.tfr"
        string_val: "gs://superb-avatar-149807-ml/train/2_1876_0.tfr"
        string_val: "gs://superb-avatar-149807-ml/train/2_1877_0.tfr"
        string_val: "gs://superb-avatar-149807-ml/train/2_187_0.tfr"
        string_val: "gs://superb-avatar-149807-ml/train/2_1880_0.tfr"
        string_val: "gs://superb-avatar-149807-ml/train/2_1883_0.tfr"
        string_val: "gs://superb-avatar-149807-ml/train/2_1884_0.tfr"
        string_val: "gs://superb-avatar-149807-ml/train/2_1885_0.tfr"
        string_val: "gs://superb-avatar-149807-ml/train/2_1885test_1.tfr"
        string_val: "gs://superb-avatar-149807-ml/train/2_1886_0.tfr"
        string_val: "gs://superb-avatar-149807-ml/train/2_1887_0.tfr"
        string_val: "gs://superb-avatar-149807-ml/train/2_1888_0.tfr"
        string_val: "gs://superb-avatar-149807-ml/train/2_188_0.tfr"
        string_val: "gs://superb-avatar-149807-ml/train/2_1890_0.tfr"
        string_val: "gs://superb-avatar-149807-ml/train/2_1891_0.tfr"
        string_val: "gs://superb-avatar-149807-ml/train/2_1892_0.tfr"
        string_val: "gs://superb-avatar-149807-ml/train/2_1893_0.tfr"
        string_val: "gs://superb-avatar-149807-ml/train/2_1894_0.tfr"
        string_val: "gs://superb-avatar-149807-ml/train/2_1895_0.tfr"
        string_val: "gs://superb-avatar-149807-ml/train/2_1896_0.tfr"
        string_val: "gs://superb-avatar-149807-ml/train/2_1898_0.tfr"
        string_val: "gs://superb-avatar-149807-ml/train/2_1899_0.tfr"
        string_val: "gs://superb-avatar-149807-ml/train/2_18_0.tfr"
        string_val: "gs://superb-avatar-149807-ml/train/2_1900_0.tfr"
        string_val: "gs://superb-avatar-149807-ml/train/2_1901_0.tfr"
        string_val: "gs://superb-avatar-149807-ml/train/2_1902_0.tfr"
        string_val: "gs://superb-avatar-149807-ml/train/2_1902test_1.tfr"
        string_val: "gs://superb-avatar-149807-ml/train/2_1903_0.tfr"
        string_val: "gs://superb-avatar-149807-ml/train/2_1904_0.tfr"
        string_val: "gs://superb-avatar-149807-ml/train/2_1905_0.tfr"
        string_val: "gs://superb-avatar-149807-ml/train/2_1906_0.tfr"
        string_val: "gs://superb-avatar-149807-ml/train/2_1907_0.tfr"
        string_val: "gs://superb-avatar-149807-ml/train/2_1908_0.tfr"
        string_val: "gs://superb-avatar-149807-ml/train/2_1909_0.tfr"
        string_val: "gs://superb-avatar-149807-ml/train/2_190_0.tfr"
        string_val: "gs://superb-avatar-149807-ml/train/2_1910_0.tfr"
        string_val: "gs://superb-avatar-149807-ml/train/2_1911_0.tfr"
        string_val: "gs://superb-avatar-149807-ml/train/2_1912_0.tfr"
        string_val: "gs://superb-avatar-149807-ml/train/2_1913_0.tfr"
        string_val: "gs://superb-avatar-149807-ml/train/2_1914_0.tfr"
        string_val: "gs://superb-avatar-149807-ml/train/2_1915_0.tfr"
        string_val: "gs://superb-avatar-149807-ml/train/2_1917_0.tfr"
        string_val: "gs://superb-avatar-149807-ml/train/2_1918_0.tfr"
        string_val: "gs://superb-avatar-149807-ml/train/2_1920_0.tfr"
        string_val: "gs://superb-avatar-149807-ml/train/2_1921_0.tfr"
        string_val: "gs://superb-avatar-149807-ml/train/2_1922_0.tfr"
        string_val: "gs://superb-avatar-149807-ml/train/2_1923_0.tfr"
        string_val: "gs://superb-avatar-149807-ml/train/2_1924_0.tfr"
        string_val: "gs://superb-avatar-149807-ml/train/2_1925_0.tfr"
        string_val: "gs://superb-avatar-149807-ml/train/2_1925test_1.tfr"
        string_val: "gs://superb-avatar-149807-ml/train/2_1926_0.tfr"
        string_val: "gs://superb-avatar-149807-ml/train/2_1927_0.tfr"
        string_val: "gs://superb-avatar-149807-ml/train/2_1929_0.tfr"
        string_val: "gs://superb-avatar-149807-ml/train/2_1930_0.tfr"
        string_val: "gs://superb-avatar-149807-ml/train/2_1931_0.tfr"
        string_val: "gs://superb-avatar-149807-ml/train/2_1932_0.tfr"
        string_val: "gs://superb-avatar-149807-ml/train/2_193_0.tfr"
        string_val: "gs://superb-avatar-149807-ml/train/2_1945_0.tfr"
        string_val: "gs://superb-avatar-149807-ml/train/2_1946_0.tfr"
        string_val: "gs://superb-avatar-149807-ml/train/2_1947_0.tfr"
        string_val: "gs://superb-avatar-149807-ml/train/2_1948_0.tfr"
        string_val: "gs://superb-avatar-149807-ml/train/2_194_0.tfr"
        string_val: "gs://superb-avatar-149807-ml/train/2_1951_0.tfr"
        string_val: "gs://superb-avatar-149807-ml/train/2_1952_0.tfr"
        string_val: "gs://superb-avatar-149807-ml/train/2_1954_0.tfr"
        string_val: "gs://superb-avatar-149807-ml/train/2_1957_0.tfr"
        string_val: "gs://superb-avatar-149807-ml/train/2_1958_0.tfr"
        string_val: "gs://superb-avatar-149807-ml/train/2_1959_0.tfr"
        string_val: "gs://superb-avatar-149807-ml/train/2_195_0.tfr"
        string_val: "gs://superb-avatar-149807-ml/train/2_1960_0.tfr"
        string_val: "gs://superb-avatar-149807-ml/train/2_1961_0.tfr"
        string_val: "gs://superb-avatar-149807-ml/train/2_1962_0.tfr"
        string_val: "gs://superb-avatar-149807-ml/train/2_1963_0.tfr"
        string_val: "gs://superb-avatar-149807-ml/train/2_1964_0.tfr"
        string_val: "gs://superb-avatar-149807-ml/train/2_1965_0.tfr"
        string_val: "gs://superb-avatar-149807-ml/train/2_1968_0.tfr"
        string_val: "gs://superb-avatar-149807-ml/train/2_1968test_1.tfr"
        string_val: "gs://superb-avatar-149807-ml/train/2_196_0.tfr"
        string_val: "gs://superb-avatar-149807-ml/train/2_197_0.tfr"
        string_val: "gs://superb-avatar-149807-ml/train/2_1986test_1.tfr"
        string_val: "gs://superb-avatar-149807-ml/train/2_1987_0.tfr"
        string_val: "gs://superb-avatar-149807-ml/train/2_1988_0.tfr"
        string_val: "gs://superb-avatar-149807-ml/train/2_1989_0.tfr"
        string_val: "gs://superb-avatar-149807-ml/train/2_198_0.tfr"
        string_val: "gs://superb-avatar-149807-ml/train/2_1990_0.tfr"
        string_val: "gs://superb-avatar-149807-ml/train/2_1991_0.tfr"
        string_val: "gs://superb-avatar-149807-ml/train/2_1992_0.tfr"
        string_val: "gs://superb-avatar-149807-ml/train/2_1993_0.tfr"
        string_val: "gs://superb-avatar-149807-ml/train/2_1994_0.tfr"
        string_val: "gs://superb-avatar-149807-ml/train/2_1995_0.tfr"
        string_val: "gs://superb-avatar-149807-ml/train/2_1996_0.tfr"
        string_val: "gs://superb-avatar-149807-ml/train/2_1997_0.tfr"
        string_val: "gs://superb-avatar-149807-ml/train/2_1998_0.tfr"
        string_val: "gs://superb-avatar-149807-ml/train/2_199_0.tfr"
        string_val: "gs://superb-avatar-149807-ml/train/2_19_0.tfr"
        string_val: "gs://superb-avatar-149807-ml/train/2_1_0.tfr"
        string_val: "gs://superb-avatar-149807-ml/train/2_1_1.tfr"
        string_val: "gs://superb-avatar-149807-ml/train/2_2001_0.tfr"
        string_val: "gs://superb-avatar-149807-ml/train/2_2002_0.tfr"
        string_val: "gs://superb-avatar-149807-ml/train/2_2003_0.tfr"
        string_val: "gs://superb-avatar-149807-ml/train/2_2004_0.tfr"
        string_val: "gs://superb-avatar-149807-ml/train/2_2005_0.tfr"
        string_val: "gs://superb-avatar-149807-ml/train/2_2006_0.tfr"
        string_val: "gs://superb-avatar-149807-ml/train/2_2007_0.tfr"
        string_val: "gs://superb-avatar-149807-ml/train/2_2009_0.tfr"
        string_val: "gs://superb-avatar-149807-ml/train/2_200_0.tfr"
        string_val: "gs://superb-avatar-149807-ml/train/2_2010_0.tfr"
        string_val: "gs://superb-avatar-149807-ml/train/2_2011_0.tfr"
        string_val: "gs://superb-avatar-149807-ml/train/2_2012_0.tfr"
        string_val: "gs://superb-avatar-149807-ml/train/2_2013_0.tfr"
        string_val: "gs://superb-avatar-149807-ml/train/2_2014_0.tfr"
        string_val: "gs://superb-avatar-149807-ml/train/2_2015_0.tfr"
        string_val: "gs://superb-avatar-149807-ml/train/2_2017_0.tfr"
        string_val: "gs://superb-avatar-149807-ml/train/2_2018test_1.tfr"
        string_val: "gs://superb-avatar-149807-ml/train/2_2019_0.tfr"
        string_val: "gs://superb-avatar-149807-ml/train/2_201_0.tfr"
        string_val: "gs://superb-avatar-149807-ml/train/2_2020_0.tfr"
        string_val: "gs://superb-avatar-149807-ml/train/2_2021_0.tfr"
        string_val: "gs://superb-avatar-149807-ml/train/2_2022_0.tfr"
        string_val: "gs://superb-avatar-149807-ml/train/2_2023_0.tfr"
        string_val: "gs://superb-avatar-149807-ml/train/2_2025test_1.tfr"
        string_val: "gs://superb-avatar-149807-ml/train/2_2026_0.tfr"
        string_val: "gs://superb-avatar-149807-ml/train/2_2028_0.tfr"
        string_val: "gs://superb-avatar-149807-ml/train/2_2029_0.tfr"
        string_val: "gs://superb-avatar-149807-ml/train/2_202_0.tfr"
        string_val: "gs://superb-avatar-149807-ml/train/2_202test_1.tfr"
        string_val: "gs://superb-avatar-149807-ml/train/2_2030_0.tfr"
        string_val: "gs://superb-avatar-149807-ml/train/2_2031_0.tfr"
        string_val: "gs://superb-avatar-149807-ml/train/2_2032_0.tfr"
        string_val: "gs://superb-avatar-149807-ml/train/2_2034_0.tfr"
        string_val: "gs://superb-avatar-149807-ml/train/2_2035_0.tfr"
        string_val: "gs://superb-avatar-149807-ml/train/2_2036_0.tfr"
        string_val: "gs://superb-avatar-149807-ml/train/2_2037_0.tfr"
        string_val: "gs://superb-avatar-149807-ml/train/2_2038_0.tfr"
        string_val: "gs://superb-avatar-149807-ml/train/2_203_0.tfr"
        string_val: "gs://superb-avatar-149807-ml/train/2_2041_0.tfr"
        string_val: "gs://superb-avatar-149807-ml/train/2_2042_0.tfr"
        string_val: "gs://superb-avatar-149807-ml/train/2_2043_0.tfr"
        string_val: "gs://superb-avatar-149807-ml/train/2_2044_0.tfr"
        string_val: "gs://superb-avatar-149807-ml/train/2_2045_0.tfr"
        string_val: "gs://superb-avatar-149807-ml/train/2_2046_0.tfr"
        string_val: "gs://superb-avatar-149807-ml/train/2_2047_0.tfr"
        string_val: "gs://superb-avatar-149807-ml/train/2_2049_0.tfr"
        string_val: "gs://superb-avatar-149807-ml/train/2_204_0.tfr"
        string_val: "gs://superb-avatar-149807-ml/train/2_2050_0.tfr"
        string_val: "gs://superb-avatar-149807-ml/train/2_2052_0.tfr"
        string_val: "gs://superb-avatar-149807-ml/train/2_2054_0.tfr"
        string_val: "gs://superb-avatar-149807-ml/train/2_2055_0.tfr"
        string_val: "gs://superb-avatar-149807-ml/train/2_2056_0.tfr"
        string_val: "gs://superb-avatar-149807-ml/train/2_2058_0.tfr"
        string_val: "gs://superb-avatar-149807-ml/train/2_2061_0.tfr"
        string_val: "gs://superb-avatar-149807-ml/train/2_2062_0.tfr"
        string_val: "gs://superb-avatar-149807-ml/train/2_2063_0.tfr"
        string_val: "gs://superb-avatar-149807-ml/train/2_2064_0.tfr"
        string_val: "gs://superb-avatar-149807-ml/train/2_2065_0.tfr"
        string_val: "gs://superb-avatar-149807-ml/train/2_2066_0.tfr"
        string_val: "gs://superb-avatar-149807-ml/train/2_2067_0.tfr"
        string_val: "gs://superb-avatar-149807-ml/train/2_2068_0.tfr"
        string_val: "gs://superb-avatar-149807-ml/train/2_2069_0.tfr"
        string_val: "gs://superb-avatar-149807-ml/train/2_2070_0.tfr"
        string_val: "gs://superb-avatar-149807-ml/train/2_2071_0.tfr"
        string_val: "gs://superb-avatar-149807-ml/train/2_2072_0.tfr"
        string_val: "gs://superb-avatar-149807-ml/train/2_2073_0.tfr"
        string_val: "gs://superb-avatar-149807-ml/train/2_2074_0.tfr"
        string_val: "gs://superb-avatar-149807-ml/train/2_2076_0.tfr"
        string_val: "gs://superb-avatar-149807-ml/train/2_2077_0.tfr"
        string_val: "gs://superb-avatar-149807-ml/train/2_2078_0.tfr"
        string_val: "gs://superb-avatar-149807-ml/train/2_2080_0.tfr"
        string_val: "gs://superb-avatar-149807-ml/train/2_2080test_1.tfr"
        string_val: "gs://superb-avatar-149807-ml/train/2_2081_0.tfr"
        string_val: "gs://superb-avatar-149807-ml/train/2_2082_0.tfr"
        string_val: "gs://superb-avatar-149807-ml/train/2_2083_0.tfr"
        string_val: "gs://superb-avatar-149807-ml/train/2_2083test_1.tfr"
        string_val: "gs://superb-avatar-149807-ml/train/2_2084_0.tfr"
        string_val: "gs://superb-avatar-149807-ml/train/2_2086_0.tfr"
        string_val: "gs://superb-avatar-149807-ml/train/2_2087_0.tfr"
        string_val: "gs://superb-avatar-149807-ml/train/2_2088_0.tfr"
        string_val: "gs://superb-avatar-149807-ml/train/2_20_0.tfr"
        string_val: "gs://superb-avatar-149807-ml/train/2_2117test_1.tfr"
        string_val: "gs://superb-avatar-149807-ml/train/2_2137_0.tfr"
        string_val: "gs://superb-avatar-149807-ml/train/2_2138_0.tfr"
        string_val: "gs://superb-avatar-149807-ml/train/2_2139_0.tfr"
        string_val: "gs://superb-avatar-149807-ml/train/2_2140_0.tfr"
        string_val: "gs://superb-avatar-149807-ml/train/2_2141_0.tfr"
        string_val: "gs://superb-avatar-149807-ml/train/2_2142_0.tfr"
        string_val: "gs://superb-avatar-149807-ml/train/2_2144_0.tfr"
        string_val: "gs://superb-avatar-149807-ml/train/2_2145_0.tfr"
        string_val: "gs://superb-avatar-149807-ml/train/2_2146_0.tfr"
        string_val: "gs://superb-avatar-149807-ml/train/2_2147_0.tfr"
        string_val: "gs://superb-avatar-149807-ml/train/2_2148_0.tfr"
        string_val: "gs://superb-avatar-149807-ml/train/2_2173_0.tfr"
        string_val: "gs://superb-avatar-149807-ml/train/2_2174_0.tfr"
        string_val: "gs://superb-avatar-149807-ml/train/2_2176_0.tfr"
        string_val: "gs://superb-avatar-149807-ml/train/2_2176test_1.tfr"
        string_val: "gs://superb-avatar-149807-ml/train/2_2177_0.tfr"
        string_val: "gs://superb-avatar-149807-ml/train/2_2178_0.tfr"
        string_val: "gs://superb-avatar-149807-ml/train/2_2179_0.tfr"
        string_val: "gs://superb-avatar-149807-ml/train/2_217_0.tfr"
        string_val: "gs://superb-avatar-149807-ml/train/2_2180_0.tfr"
        string_val: "gs://superb-avatar-149807-ml/train/2_2181_0.tfr"
        string_val: "gs://superb-avatar-149807-ml/train/2_2182_0.tfr"
        string_val: "gs://superb-avatar-149807-ml/train/2_2183_0.tfr"
        string_val: "gs://superb-avatar-149807-ml/train/2_2184_0.tfr"
        string_val: "gs://superb-avatar-149807-ml/train/2_2185_0.tfr"
        string_val: "gs://superb-avatar-149807-ml/train/2_2187_0.tfr"
        string_val: "gs://superb-avatar-149807-ml/train/2_2187test_1.tfr"
        string_val: "gs://superb-avatar-149807-ml/train/2_2189_0.tfr"
        string_val: "gs://superb-avatar-149807-ml/train/2_2190_0.tfr"
        string_val: "gs://superb-avatar-149807-ml/train/2_2191_0.tfr"
        string_val: "gs://superb-avatar-149807-ml/train/2_2193_0.tfr"
        string_val: "gs://superb-avatar-149807-ml/train/2_2194_0.tfr"
        string_val: "gs://superb-avatar-149807-ml/train/2_2195_0.tfr"
        string_val: "gs://superb-avatar-149807-ml/train/2_2196_0.tfr"
        string_val: "gs://superb-avatar-149807-ml/train/2_219_0.tfr"
        string_val: "gs://superb-avatar-149807-ml/train/2_21_0.tfr"
        string_val: "gs://superb-avatar-149807-ml/train/2_21_1.tfr"
        string_val: "gs://superb-avatar-149807-ml/train/2_220_0.tfr"
        string_val: "gs://superb-avatar-149807-ml/train/2_2219test_1.tfr"
        string_val: "gs://superb-avatar-149807-ml/train/2_221_0.tfr"
        string_val: "gs://superb-avatar-149807-ml/train/2_222_0.tfr"
        string_val: "gs://superb-avatar-149807-ml/train/2_223_0.tfr"
        string_val: "gs://superb-avatar-149807-ml/train/2_224_0.tfr"
        string_val: "gs://superb-avatar-149807-ml/train/2_225_0.tfr"
        string_val: "gs://superb-avatar-149807-ml/train/2_226_0.tfr"
        string_val: "gs://superb-avatar-149807-ml/train/2_227_0.tfr"
        string_val: "gs://superb-avatar-149807-ml/train/2_228_0.tfr"
        string_val: "gs://superb-avatar-149807-ml/train/2_229_0.tfr"
        string_val: "gs://superb-avatar-149807-ml/train/2_22_0.tfr"
        string_val: "gs://superb-avatar-149807-ml/train/2_22_1.tfr"
        string_val: "gs://superb-avatar-149807-ml/train/2_231_0.tfr"
        string_val: "gs://superb-avatar-149807-ml/train/2_232_0.tfr"
        string_val: "gs://superb-avatar-149807-ml/train/2_233_0.tfr"
        string_val: "gs://superb-avatar-149807-ml/train/2_235_0.tfr"
        string_val: "gs://superb-avatar-149807-ml/train/2_236_0.tfr"
        string_val: "gs://superb-avatar-149807-ml/train/2_237_0.tfr"
        string_val: "gs://superb-avatar-149807-ml/train/2_238_0.tfr"
        string_val: "gs://superb-avatar-149807-ml/train/2_239_0.tfr"
        string_val: "gs://superb-avatar-149807-ml/train/2_23_0.tfr"
        string_val: "gs://superb-avatar-149807-ml/train/2_23_1.tfr"
        string_val: "gs://superb-avatar-149807-ml/train/2_240_0.tfr"
        string_val: "gs://superb-avatar-149807-ml/train/2_242_0.tfr"
        string_val: "gs://superb-avatar-149807-ml/train/2_243_0.tfr"
        string_val: "gs://superb-avatar-149807-ml/train/2_244_0.tfr"
        string_val: "gs://superb-avatar-149807-ml/train/2_245_0.tfr"
        string_val: "gs://superb-avatar-149807-ml/train/2_246_0.tfr"
        string_val: "gs://superb-avatar-149807-ml/train/2_247_0.tfr"
        string_val: "gs://superb-avatar-149807-ml/train/2_248_0.tfr"
        string_val: "gs://superb-avatar-149807-ml/train/2_249_0.tfr"
        string_val: "gs://superb-avatar-149807-ml/train/2_24_0.tfr"
        string_val: "gs://superb-avatar-149807-ml/train/2_24_1.tfr"
        string_val: "gs://superb-avatar-149807-ml/train/2_250_0.tfr"
        string_val: "gs://superb-avatar-149807-ml/train/2_251_0.tfr"
        string_val: "gs://superb-avatar-149807-ml/train/2_252_0.tfr"
        string_val: "gs://superb-avatar-149807-ml/train/2_253_0.tfr"
        string_val: "gs://superb-avatar-149807-ml/train/2_254_0.tfr"
        string_val: "gs://superb-avatar-149807-ml/train/2_255_0.tfr"
        string_val: "gs://superb-avatar-149807-ml/train/2_256_0.tfr"
        string_val: "gs://superb-avatar-149807-ml/train/2_258_0.tfr"
        string_val: "gs://superb-avatar-149807-ml/train/2_259_0.tfr"
        string_val: "gs://superb-avatar-149807-ml/train/2_25_1.tfr"
        string_val: "gs://superb-avatar-149807-ml/train/2_260_0.tfr"
        string_val: "gs://superb-avatar-149807-ml/train/2_262_0.tfr"
        string_val: "gs://superb-avatar-149807-ml/train/2_264_0.tfr"
        string_val: "gs://superb-avatar-149807-ml/train/2_265_0.tfr"
        string_val: "gs://superb-avatar-149807-ml/train/2_266_0.tfr"
        string_val: "gs://superb-avatar-149807-ml/train/2_267_0.tfr"
        string_val: "gs://superb-avatar-149807-ml/train/2_268_0.tfr"
        string_val: "gs://superb-avatar-149807-ml/train/2_269_0.tfr"
        string_val: "gs://superb-avatar-149807-ml/train/2_26_0.tfr"
        string_val: "gs://superb-avatar-149807-ml/train/2_26_1.tfr"
        string_val: "gs://superb-avatar-149807-ml/train/2_270_0.tfr"
        string_val: "gs://superb-avatar-149807-ml/train/2_271_0.tfr"
        string_val: "gs://superb-avatar-149807-ml/train/2_273_0.tfr"
        string_val: "gs://superb-avatar-149807-ml/train/2_274_0.tfr"
        string_val: "gs://superb-avatar-149807-ml/train/2_275_0.tfr"
        string_val: "gs://superb-avatar-149807-ml/train/2_276_0.tfr"
        string_val: "gs://superb-avatar-149807-ml/train/2_277_0.tfr"
        string_val: "gs://superb-avatar-149807-ml/train/2_278_0.tfr"
        string_val: "gs://superb-avatar-149807-ml/train/2_279_0.tfr"
        string_val: "gs://superb-avatar-149807-ml/train/2_27_0.tfr"
        string_val: "gs://superb-avatar-149807-ml/train/2_27_1.tfr"
        string_val: "gs://superb-avatar-149807-ml/train/2_280_0.tfr"
        string_val: "gs://superb-avatar-149807-ml/train/2_281_0.tfr"
        string_val: "gs://superb-avatar-149807-ml/train/2_282_0.tfr"
        string_val: "gs://superb-avatar-149807-ml/train/2_283_0.tfr"
        string_val: "gs://superb-avatar-149807-ml/train/2_285_0.tfr"
        string_val: "gs://superb-avatar-149807-ml/train/2_286_0.tfr"
        string_val: "gs://superb-avatar-149807-ml/train/2_287_0.tfr"
        string_val: "gs://superb-avatar-149807-ml/train/2_288_0.tfr"
        string_val: "gs://superb-avatar-149807-ml/train/2_289_0.tfr"
        string_val: "gs://superb-avatar-149807-ml/train/2_28_0.tfr"
        string_val: "gs://superb-avatar-149807-ml/train/2_28_1.tfr"
        string_val: "gs://superb-avatar-149807-ml/train/2_290_0.tfr"
        string_val: "gs://superb-avatar-149807-ml/train/2_290test_1.tfr"
        string_val: "gs://superb-avatar-149807-ml/train/2_291_0.tfr"
        string_val: "gs://superb-avatar-149807-ml/train/2_292_0.tfr"
        string_val: "gs://superb-avatar-149807-ml/train/2_293_0.tfr"
        string_val: "gs://superb-avatar-149807-ml/train/2_295_0.tfr"
        string_val: "gs://superb-avatar-149807-ml/train/2_296_0.tfr"
        string_val: "gs://superb-avatar-149807-ml/train/2_297_0.tfr"
        string_val: "gs://superb-avatar-149807-ml/train/2_298_0.tfr"
        string_val: "gs://superb-avatar-149807-ml/train/2_29_0.tfr"
        string_val: "gs://superb-avatar-149807-ml/train/2_29_1.tfr"
        string_val: "gs://superb-avatar-149807-ml/train/2_300_0.tfr"
        string_val: "gs://superb-avatar-149807-ml/train/2_301_0.tfr"
        string_val: "gs://superb-avatar-149807-ml/train/2_302_0.tfr"
        string_val: "gs://superb-avatar-149807-ml/train/2_303_0.tfr"
        string_val: "gs://superb-avatar-149807-ml/train/2_303test_1.tfr"
        string_val: "gs://superb-avatar-149807-ml/train/2_304_0.tfr"
        string_val: "gs://superb-avatar-149807-ml/train/2_306_0.tfr"
        string_val: "gs://superb-avatar-149807-ml/train/2_308_0.tfr"
        string_val: "gs://superb-avatar-149807-ml/train/2_309_0.tfr"
        string_val: "gs://superb-avatar-149807-ml/train/2_30_0.tfr"
        string_val: "gs://superb-avatar-149807-ml/train/2_310_0.tfr"
        string_val: "gs://superb-avatar-149807-ml/train/2_310test_1.tfr"
        string_val: "gs://superb-avatar-149807-ml/train/2_311_0.tfr"
        string_val: "gs://superb-avatar-149807-ml/train/2_312_0.tfr"
        string_val: "gs://superb-avatar-149807-ml/train/2_313_0.tfr"
        string_val: "gs://superb-avatar-149807-ml/train/2_313test_1.tfr"
        string_val: "gs://superb-avatar-149807-ml/train/2_314_0.tfr"
        string_val: "gs://superb-avatar-149807-ml/train/2_315_0.tfr"
        string_val: "gs://superb-avatar-149807-ml/train/2_317_0.tfr"
        string_val: "gs://superb-avatar-149807-ml/train/2_318_0.tfr"
        string_val: "gs://superb-avatar-149807-ml/train/2_319_0.tfr"
        string_val: "gs://superb-avatar-149807-ml/train/2_31_0.tfr"
        string_val: "gs://superb-avatar-149807-ml/train/2_31_1.tfr"
        string_val: "gs://superb-avatar-149807-ml/train/2_31test_1.tfr"
        string_val: "gs://superb-avatar-149807-ml/train/2_320_0.tfr"
        string_val: "gs://superb-avatar-149807-ml/train/2_321_0.tfr"
        string_val: "gs://superb-avatar-149807-ml/train/2_322_0.tfr"
        string_val: "gs://superb-avatar-149807-ml/train/2_323_0.tfr"
        string_val: "gs://superb-avatar-149807-ml/train/2_324_0.tfr"
        string_val: "gs://superb-avatar-149807-ml/train/2_325_0.tfr"
        string_val: "gs://superb-avatar-149807-ml/train/2_326_0.tfr"
        string_val: "gs://superb-avatar-149807-ml/train/2_329_0.tfr"
        string_val: "gs://superb-avatar-149807-ml/train/2_32_0.tfr"
        string_val: "gs://superb-avatar-149807-ml/train/2_32_1.tfr"
        string_val: "gs://superb-avatar-149807-ml/train/2_330_0.tfr"
        string_val: "gs://superb-avatar-149807-ml/train/2_331_0.tfr"
        string_val: "gs://superb-avatar-149807-ml/train/2_332_0.tfr"
        string_val: "gs://superb-avatar-149807-ml/train/2_333_0.tfr"
        string_val: "gs://superb-avatar-149807-ml/train/2_334_0.tfr"
        string_val: "gs://superb-avatar-149807-ml/train/2_336_0.tfr"
        string_val: "gs://superb-avatar-149807-ml/train/2_339_0.tfr"
        string_val: "gs://superb-avatar-149807-ml/train/2_33_0.tfr"
        string_val: "gs://superb-avatar-149807-ml/train/2_33_1.tfr"
        string_val: "gs://superb-avatar-149807-ml/train/2_340_0.tfr"
        string_val: "gs://superb-avatar-149807-ml/train/2_342_0.tfr"
        string_val: "gs://superb-avatar-149807-ml/train/2_343_0.tfr"
        string_val: "gs://superb-avatar-149807-ml/train/2_345_0.tfr"
        string_val: "gs://superb-avatar-149807-ml/train/2_346_0.tfr"
        string_val: "gs://superb-avatar-149807-ml/train/2_348_0.tfr"
        string_val: "gs://superb-avatar-149807-ml/train/2_349_0.tfr"
        string_val: "gs://superb-avatar-149807-ml/train/2_34_0.tfr"
        string_val: "gs://superb-avatar-149807-ml/train/2_34_1.tfr"
        string_val: "gs://superb-avatar-149807-ml/train/2_350_0.tfr"
        string_val: "gs://superb-avatar-149807-ml/train/2_351_0.tfr"
        string_val: "gs://superb-avatar-149807-ml/train/2_352_0.tfr"
        string_val: "gs://superb-avatar-149807-ml/train/2_353_0.tfr"
        string_val: "gs://superb-avatar-149807-ml/train/2_356_0.tfr"
        string_val: "gs://superb-avatar-149807-ml/train/2_357_0.tfr"
        string_val: "gs://superb-avatar-149807-ml/train/2_358_0.tfr"
        string_val: "gs://superb-avatar-149807-ml/train/2_359_0.tfr"
        string_val: "gs://superb-avatar-149807-ml/train/2_35_0.tfr"
        string_val: "gs://superb-avatar-149807-ml/train/2_35_1.tfr"
        string_val: "gs://superb-avatar-149807-ml/train/2_35test_1.tfr"
        string_val: "gs://superb-avatar-149807-ml/train/2_360_0.tfr"
        string_val: "gs://superb-avatar-149807-ml/train/2_361_0.tfr"
        string_val: "gs://superb-avatar-149807-ml/train/2_362_0.tfr"
        string_val: "gs://superb-avatar-149807-ml/train/2_363_0.tfr"
        string_val: "gs://superb-avatar-149807-ml/train/2_364_0.tfr"
        string_val: "gs://superb-avatar-149807-ml/train/2_365_0.tfr"
        string_val: "gs://superb-avatar-149807-ml/train/2_366_0.tfr"
        string_val: "gs://superb-avatar-149807-ml/train/2_367_0.tfr"
        string_val: "gs://superb-avatar-149807-ml/train/2_368_0.tfr"
        string_val: "gs://superb-avatar-149807-ml/train/2_369_0.tfr"
        string_val: "gs://superb-avatar-149807-ml/train/2_36_0.tfr"
        string_val: "gs://superb-avatar-149807-ml/train/2_36_1.tfr"
        string_val: "gs://superb-avatar-149807-ml/train/2_370_0.tfr"
        string_val: "gs://superb-avatar-149807-ml/train/2_371_0.tfr"
        string_val: "gs://superb-avatar-149807-ml/train/2_372_0.tfr"
        string_val: "gs://superb-avatar-149807-ml/train/2_373_0.tfr"
        string_val: "gs://superb-avatar-149807-ml/train/2_374_0.tfr"
        string_val: "gs://superb-avatar-149807-ml/train/2_375_0.tfr"
        string_val: "gs://superb-avatar-149807-ml/train/2_376_0.tfr"
        string_val: "gs://superb-avatar-149807-ml/train/2_377_0.tfr"
        string_val: "gs://superb-avatar-149807-ml/train/2_378_0.tfr"
        string_val: "gs://superb-avatar-149807-ml/train/2_37_1.tfr"
        string_val: "gs://superb-avatar-149807-ml/train/2_380_0.tfr"
        string_val: "gs://superb-avatar-149807-ml/train/2_381_0.tfr"
        string_val: "gs://superb-avatar-149807-ml/train/2_382_0.tfr"
        string_val: "gs://superb-avatar-149807-ml/train/2_383_0.tfr"
        string_val: "gs://superb-avatar-149807-ml/train/2_384_0.tfr"
        string_val: "gs://superb-avatar-149807-ml/train/2_385_0.tfr"
        string_val: "gs://superb-avatar-149807-ml/train/2_386_0.tfr"
        string_val: "gs://superb-avatar-149807-ml/train/2_388_0.tfr"
        string_val: "gs://superb-avatar-149807-ml/train/2_389_0.tfr"
        string_val: "gs://superb-avatar-149807-ml/train/2_38_0.tfr"
        string_val: "gs://superb-avatar-149807-ml/train/2_38_1.tfr"
        string_val: "gs://superb-avatar-149807-ml/train/2_390_0.tfr"
        string_val: "gs://superb-avatar-149807-ml/train/2_39_0.tfr"
        string_val: "gs://superb-avatar-149807-ml/train/2_3_0.tfr"
        string_val: "gs://superb-avatar-149807-ml/train/2_3_1.tfr"
        string_val: "gs://superb-avatar-149807-ml/train/2_409_0.tfr"
        string_val: "gs://superb-avatar-149807-ml/train/2_409test_1.tfr"
        string_val: "gs://superb-avatar-149807-ml/train/2_40_1.tfr"
        string_val: "gs://superb-avatar-149807-ml/train/2_410_0.tfr"
        string_val: "gs://superb-avatar-149807-ml/train/2_411_0.tfr"
        string_val: "gs://superb-avatar-149807-ml/train/2_412_0.tfr"
        string_val: "gs://superb-avatar-149807-ml/train/2_414_0.tfr"
        string_val: "gs://superb-avatar-149807-ml/train/2_415_0.tfr"
        string_val: "gs://superb-avatar-149807-ml/train/2_416_0.tfr"
        string_val: "gs://superb-avatar-149807-ml/train/2_417_0.tfr"
        string_val: "gs://superb-avatar-149807-ml/train/2_418_0.tfr"
        string_val: "gs://superb-avatar-149807-ml/train/2_41_0.tfr"
        string_val: "gs://superb-avatar-149807-ml/train/2_420_0.tfr"
        string_val: "gs://superb-avatar-149807-ml/train/2_423_0.tfr"
        string_val: "gs://superb-avatar-149807-ml/train/2_424_0.tfr"
        string_val: "gs://superb-avatar-149807-ml/train/2_425_0.tfr"
        string_val: "gs://superb-avatar-149807-ml/train/2_426_0.tfr"
        string_val: "gs://superb-avatar-149807-ml/train/2_42_0.tfr"
        string_val: "gs://superb-avatar-149807-ml/train/2_42_1.tfr"
        string_val: "gs://superb-avatar-149807-ml/train/2_430test_1.tfr"
        string_val: "gs://superb-avatar-149807-ml/train/2_43_0.tfr"
        string_val: "gs://superb-avatar-149807-ml/train/2_442test_1.tfr"
        string_val: "gs://superb-avatar-149807-ml/train/2_44_0.tfr"
        string_val: "gs://superb-avatar-149807-ml/train/2_44_1.tfr"
        string_val: "gs://superb-avatar-149807-ml/train/2_45_0.tfr"
        string_val: "gs://superb-avatar-149807-ml/train/2_45_1.tfr"
        string_val: "gs://superb-avatar-149807-ml/train/2_45test_1.tfr"
        string_val: "gs://superb-avatar-149807-ml/train/2_46_0.tfr"
        string_val: "gs://superb-avatar-149807-ml/train/2_46_1.tfr"
        string_val: "gs://superb-avatar-149807-ml/train/2_475_0.tfr"
        string_val: "gs://superb-avatar-149807-ml/train/2_475test_1.tfr"
        string_val: "gs://superb-avatar-149807-ml/train/2_476_0.tfr"
        string_val: "gs://superb-avatar-149807-ml/train/2_477_0.tfr"
        string_val: "gs://superb-avatar-149807-ml/train/2_478_0.tfr"
        string_val: "gs://superb-avatar-149807-ml/train/2_479_0.tfr"
        string_val: "gs://superb-avatar-149807-ml/train/2_47_0.tfr"
        string_val: "gs://superb-avatar-149807-ml/train/2_47_1.tfr"
        string_val: "gs://superb-avatar-149807-ml/train/2_480_0.tfr"
        string_val: "gs://superb-avatar-149807-ml/train/2_481_0.tfr"
        string_val: "gs://superb-avatar-149807-ml/train/2_482_0.tfr"
        string_val: "gs://superb-avatar-149807-ml/train/2_483_0.tfr"
        string_val: "gs://superb-avatar-149807-ml/train/2_484_0.tfr"
        string_val: "gs://superb-avatar-149807-ml/train/2_485_0.tfr"
        string_val: "gs://superb-avatar-149807-ml/train/2_485test_1.tfr"
        string_val: "gs://superb-avatar-149807-ml/train/2_487_0.tfr"
        string_val: "gs://superb-avatar-149807-ml/train/2_488_0.tfr"
        string_val: "gs://superb-avatar-149807-ml/train/2_489_0.tfr"
        string_val: "gs://superb-avatar-149807-ml/train/2_48_0.tfr"
        string_val: "gs://superb-avatar-149807-ml/train/2_48_1.tfr"
        string_val: "gs://superb-avatar-149807-ml/train/2_491_0.tfr"
        string_val: "gs://superb-avatar-149807-ml/train/2_492_0.tfr"
        string_val: "gs://superb-avatar-149807-ml/train/2_494_0.tfr"
        string_val: "gs://superb-avatar-149807-ml/train/2_495_0.tfr"
        string_val: "gs://superb-avatar-149807-ml/train/2_496_0.tfr"
        string_val: "gs://superb-avatar-149807-ml/train/2_498_0.tfr"
        string_val: "gs://superb-avatar-149807-ml/train/2_499_0.tfr"
        string_val: "gs://superb-avatar-149807-ml/train/2_49_1.tfr"
        string_val: "gs://superb-avatar-149807-ml/train/2_4_0.tfr"
        string_val: "gs://superb-avatar-149807-ml/train/2_500_0.tfr"
        string_val: "gs://superb-avatar-149807-ml/train/2_501_0.tfr"
        string_val: "gs://superb-avatar-149807-ml/train/2_502_0.tfr"
        string_val: "gs://superb-avatar-149807-ml/train/2_503_0.tfr"
        string_val: "gs://superb-avatar-149807-ml/train/2_504_0.tfr"
        string_val: "gs://superb-avatar-149807-ml/train/2_505_0.tfr"
        string_val: "gs://superb-avatar-149807-ml/train/2_507_0.tfr"
        string_val: "gs://superb-avatar-149807-ml/train/2_508_0.tfr"
        string_val: "gs://superb-avatar-149807-ml/train/2_509_0.tfr"
        string_val: "gs://superb-avatar-149807-ml/train/2_50_0.tfr"
        string_val: "gs://superb-avatar-149807-ml/train/2_50_1.tfr"
        string_val: "gs://superb-avatar-149807-ml/train/2_510_0.tfr"
        string_val: "gs://superb-avatar-149807-ml/train/2_511_0.tfr"
        string_val: "gs://superb-avatar-149807-ml/train/2_511test_1.tfr"
        string_val: "gs://superb-avatar-149807-ml/train/2_512_0.tfr"
        string_val: "gs://superb-avatar-149807-ml/train/2_513_0.tfr"
        string_val: "gs://superb-avatar-149807-ml/train/2_515_0.tfr"
        string_val: "gs://superb-avatar-149807-ml/train/2_516_0.tfr"
        string_val: "gs://superb-avatar-149807-ml/train/2_517_0.tfr"
        string_val: "gs://superb-avatar-149807-ml/train/2_518_0.tfr"
        string_val: "gs://superb-avatar-149807-ml/train/2_519_0.tfr"
        string_val: "gs://superb-avatar-149807-ml/train/2_51_0.tfr"
        string_val: "gs://superb-avatar-149807-ml/train/2_51_1.tfr"
        string_val: "gs://superb-avatar-149807-ml/train/2_520_0.tfr"
        string_val: "gs://superb-avatar-149807-ml/train/2_521_0.tfr"
        string_val: "gs://superb-avatar-149807-ml/train/2_522_0.tfr"
        string_val: "gs://superb-avatar-149807-ml/train/2_53_0.tfr"
        string_val: "gs://superb-avatar-149807-ml/train/2_53_1.tfr"
        string_val: "gs://superb-avatar-149807-ml/train/2_547_0.tfr"
        string_val: "gs://superb-avatar-149807-ml/train/2_548_0.tfr"
        string_val: "gs://superb-avatar-149807-ml/train/2_549_0.tfr"
        string_val: "gs://superb-avatar-149807-ml/train/2_54_1.tfr"
        string_val: "gs://superb-avatar-149807-ml/train/2_550_0.tfr"
        string_val: "gs://superb-avatar-149807-ml/train/2_551_0.tfr"
        string_val: "gs://superb-avatar-149807-ml/train/2_553_0.tfr"
        string_val: "gs://superb-avatar-149807-ml/train/2_554_0.tfr"
        string_val: "gs://superb-avatar-149807-ml/train/2_555_0.tfr"
        string_val: "gs://superb-avatar-149807-ml/train/2_555test_1.tfr"
        string_val: "gs://superb-avatar-149807-ml/train/2_556_0.tfr"
        string_val: "gs://superb-avatar-149807-ml/train/2_557_0.tfr"
        string_val: "gs://superb-avatar-149807-ml/train/2_559_0.tfr"
        string_val: "gs://superb-avatar-149807-ml/train/2_55_1.tfr"
        string_val: "gs://superb-avatar-149807-ml/train/2_561_0.tfr"
        string_val: "gs://superb-avatar-149807-ml/train/2_563_0.tfr"
        string_val: "gs://superb-avatar-149807-ml/train/2_564_0.tfr"
        string_val: "gs://superb-avatar-149807-ml/train/2_565_0.tfr"
        string_val: "gs://superb-avatar-149807-ml/train/2_566_0.tfr"
        string_val: "gs://superb-avatar-149807-ml/train/2_567_0.tfr"
        string_val: "gs://superb-avatar-149807-ml/train/2_568_0.tfr"
        string_val: "gs://superb-avatar-149807-ml/train/2_56_1.tfr"
        string_val: "gs://superb-avatar-149807-ml/train/2_570_0.tfr"
        string_val: "gs://superb-avatar-149807-ml/train/2_571_0.tfr"
        string_val: "gs://superb-avatar-149807-ml/train/2_572_0.tfr"
        string_val: "gs://superb-avatar-149807-ml/train/2_573_0.tfr"
        string_val: "gs://superb-avatar-149807-ml/train/2_574_0.tfr"
        string_val: "gs://superb-avatar-149807-ml/train/2_575_0.tfr"
        string_val: "gs://superb-avatar-149807-ml/train/2_575test_1.tfr"
        string_val: "gs://superb-avatar-149807-ml/train/2_576_0.tfr"
        string_val: "gs://superb-avatar-149807-ml/train/2_577_0.tfr"
        string_val: "gs://superb-avatar-149807-ml/train/2_577test_1.tfr"
        string_val: "gs://superb-avatar-149807-ml/train/2_578_0.tfr"
        string_val: "gs://superb-avatar-149807-ml/train/2_580_0.tfr"
        string_val: "gs://superb-avatar-149807-ml/train/2_581_0.tfr"
        string_val: "gs://superb-avatar-149807-ml/train/2_583_0.tfr"
        string_val: "gs://superb-avatar-149807-ml/train/2_584_0.tfr"
        string_val: "gs://superb-avatar-149807-ml/train/2_585_0.tfr"
        string_val: "gs://superb-avatar-149807-ml/train/2_586_0.tfr"
        string_val: "gs://superb-avatar-149807-ml/train/2_587_0.tfr"
        string_val: "gs://superb-avatar-149807-ml/train/2_588_0.tfr"
        string_val: "gs://superb-avatar-149807-ml/train/2_589_0.tfr"
        string_val: "gs://superb-avatar-149807-ml/train/2_58_1.tfr"
        string_val: "gs://superb-avatar-149807-ml/train/2_590_0.tfr"
        string_val: "gs://superb-avatar-149807-ml/train/2_591_0.tfr"
        string_val: "gs://superb-avatar-149807-ml/train/2_592_0.tfr"
        string_val: "gs://superb-avatar-149807-ml/train/2_593_0.tfr"
        string_val: "gs://superb-avatar-149807-ml/train/2_595_0.tfr"
        string_val: "gs://superb-avatar-149807-ml/train/2_595test_1.tfr"
        string_val: "gs://superb-avatar-149807-ml/train/2_596_0.tfr"
        string_val: "gs://superb-avatar-149807-ml/train/2_597_0.tfr"
        string_val: "gs://superb-avatar-149807-ml/train/2_598_0.tfr"
        string_val: "gs://superb-avatar-149807-ml/train/2_599test_1.tfr"
        string_val: "gs://superb-avatar-149807-ml/train/2_59_1.tfr"
        string_val: "gs://superb-avatar-149807-ml/train/2_5_0.tfr"
        string_val: "gs://superb-avatar-149807-ml/train/2_5_1.tfr"
        string_val: "gs://superb-avatar-149807-ml/train/2_600_0.tfr"
        string_val: "gs://superb-avatar-149807-ml/train/2_601_0.tfr"
        string_val: "gs://superb-avatar-149807-ml/train/2_602_0.tfr"
        string_val: "gs://superb-avatar-149807-ml/train/2_604_0.tfr"
        string_val: "gs://superb-avatar-149807-ml/train/2_605_0.tfr"
        string_val: "gs://superb-avatar-149807-ml/train/2_606_0.tfr"
        string_val: "gs://superb-avatar-149807-ml/train/2_608_0.tfr"
        string_val: "gs://superb-avatar-149807-ml/train/2_60_1.tfr"
        string_val: "gs://superb-avatar-149807-ml/train/2_610_0.tfr"
        string_val: "gs://superb-avatar-149807-ml/train/2_611_0.tfr"
        string_val: "gs://superb-avatar-149807-ml/train/2_612_0.tfr"
        string_val: "gs://superb-avatar-149807-ml/train/2_613_0.tfr"
        string_val: "gs://superb-avatar-149807-ml/train/2_615_0.tfr"
        string_val: "gs://superb-avatar-149807-ml/train/2_617_0.tfr"
        string_val: "gs://superb-avatar-149807-ml/train/2_618_0.tfr"
        string_val: "gs://superb-avatar-149807-ml/train/2_619_0.tfr"
        string_val: "gs://superb-avatar-149807-ml/train/2_61_1.tfr"
        string_val: "gs://superb-avatar-149807-ml/train/2_620_0.tfr"
        string_val: "gs://superb-avatar-149807-ml/train/2_621_0.tfr"
        string_val: "gs://superb-avatar-149807-ml/train/2_624_0.tfr"
        string_val: "gs://superb-avatar-149807-ml/train/2_625_0.tfr"
        string_val: "gs://superb-avatar-149807-ml/train/2_626_0.tfr"
        string_val: "gs://superb-avatar-149807-ml/train/2_627_0.tfr"
        string_val: "gs://superb-avatar-149807-ml/train/2_628_0.tfr"
        string_val: "gs://superb-avatar-149807-ml/train/2_630_0.tfr"
        string_val: "gs://superb-avatar-149807-ml/train/2_631_0.tfr"
        string_val: "gs://superb-avatar-149807-ml/train/2_632_0.tfr"
        string_val: "gs://superb-avatar-149807-ml/train/2_633_0.tfr"
        string_val: "gs://superb-avatar-149807-ml/train/2_636_0.tfr"
        string_val: "gs://superb-avatar-149807-ml/train/2_637_0.tfr"
        string_val: "gs://superb-avatar-149807-ml/train/2_639_0.tfr"
        string_val: "gs://superb-avatar-149807-ml/train/2_63_1.tfr"
        string_val: "gs://superb-avatar-149807-ml/train/2_640_0.tfr"
        string_val: "gs://superb-avatar-149807-ml/train/2_642_0.tfr"
        string_val: "gs://superb-avatar-149807-ml/train/2_643_0.tfr"
        string_val: "gs://superb-avatar-149807-ml/train/2_644_0.tfr"
        string_val: "gs://superb-avatar-149807-ml/train/2_644test_1.tfr"
        string_val: "gs://superb-avatar-149807-ml/train/2_645_0.tfr"
        string_val: "gs://superb-avatar-149807-ml/train/2_646_0.tfr"
        string_val: "gs://superb-avatar-149807-ml/train/2_647_0.tfr"
        string_val: "gs://superb-avatar-149807-ml/train/2_647test_1.tfr"
        string_val: "gs://superb-avatar-149807-ml/train/2_649_0.tfr"
        string_val: "gs://superb-avatar-149807-ml/train/2_64_1.tfr"
        string_val: "gs://superb-avatar-149807-ml/train/2_650_0.tfr"
        string_val: "gs://superb-avatar-149807-ml/train/2_652_0.tfr"
        string_val: "gs://superb-avatar-149807-ml/train/2_655_0.tfr"
        string_val: "gs://superb-avatar-149807-ml/train/2_657_0.tfr"
        string_val: "gs://superb-avatar-149807-ml/train/2_658_0.tfr"
        string_val: "gs://superb-avatar-149807-ml/train/2_659_0.tfr"
        string_val: "gs://superb-avatar-149807-ml/train/2_65_1.tfr"
        string_val: "gs://superb-avatar-149807-ml/train/2_660_0.tfr"
        string_val: "gs://superb-avatar-149807-ml/train/2_661_0.tfr"
        string_val: "gs://superb-avatar-149807-ml/train/2_662_0.tfr"
        string_val: "gs://superb-avatar-149807-ml/train/2_663_0.tfr"
        string_val: "gs://superb-avatar-149807-ml/train/2_664_0.tfr"
        string_val: "gs://superb-avatar-149807-ml/train/2_666_0.tfr"
        string_val: "gs://superb-avatar-149807-ml/train/2_667_0.tfr"
        string_val: "gs://superb-avatar-149807-ml/train/2_668_0.tfr"
        string_val: "gs://superb-avatar-149807-ml/train/2_669_0.tfr"
        string_val: "gs://superb-avatar-149807-ml/train/2_66_1.tfr"
        string_val: "gs://superb-avatar-149807-ml/train/2_670_0.tfr"
        string_val: "gs://superb-avatar-149807-ml/train/2_671_0.tfr"
        string_val: "gs://superb-avatar-149807-ml/train/2_672_0.tfr"
        string_val: "gs://superb-avatar-149807-ml/train/2_673_0.tfr"
        string_val: "gs://superb-avatar-149807-ml/train/2_674_0.tfr"
        string_val: "gs://superb-avatar-149807-ml/train/2_675_0.tfr"
        string_val: "gs://superb-avatar-149807-ml/train/2_676_0.tfr"
        string_val: "gs://superb-avatar-149807-ml/train/2_677_0.tfr"
        string_val: "gs://superb-avatar-149807-ml/train/2_678_0.tfr"
        string_val: "gs://superb-avatar-149807-ml/train/2_679_0.tfr"
        string_val: "gs://superb-avatar-149807-ml/train/2_67_1.tfr"
        string_val: "gs://superb-avatar-149807-ml/train/2_680_0.tfr"
        string_val: "gs://superb-avatar-149807-ml/train/2_681_0.tfr"
        string_val: "gs://superb-avatar-149807-ml/train/2_682test_1.tfr"
        string_val: "gs://superb-avatar-149807-ml/train/2_683_0.tfr"
        string_val: "gs://superb-avatar-149807-ml/train/2_685_0.tfr"
        string_val: "gs://superb-avatar-149807-ml/train/2_687_0.tfr"
        string_val: "gs://superb-avatar-149807-ml/train/2_688_0.tfr"
        string_val: "gs://superb-avatar-149807-ml/train/2_689_0.tfr"
        string_val: "gs://superb-avatar-149807-ml/train/2_68_1.tfr"
        string_val: "gs://superb-avatar-149807-ml/train/2_68test_1.tfr"
        string_val: "gs://superb-avatar-149807-ml/train/2_690_0.tfr"
        string_val: "gs://superb-avatar-149807-ml/train/2_691_0.tfr"
        string_val: "gs://superb-avatar-149807-ml/train/2_692_0.tfr"
        string_val: "gs://superb-avatar-149807-ml/train/2_693_0.tfr"
        string_val: "gs://superb-avatar-149807-ml/train/2_694_0.tfr"
        string_val: "gs://superb-avatar-149807-ml/train/2_695_0.tfr"
        string_val: "gs://superb-avatar-149807-ml/train/2_699_0.tfr"
        string_val: "gs://superb-avatar-149807-ml/train/2_69_1.tfr"
        string_val: "gs://superb-avatar-149807-ml/train/2_6_0.tfr"
        string_val: "gs://superb-avatar-149807-ml/train/2_6_1.tfr"
        string_val: "gs://superb-avatar-149807-ml/train/2_700_0.tfr"
        string_val: "gs://superb-avatar-149807-ml/train/2_701_0.tfr"
        string_val: "gs://superb-avatar-149807-ml/train/2_702_0.tfr"
        string_val: "gs://superb-avatar-149807-ml/train/2_703_0.tfr"
        string_val: "gs://superb-avatar-149807-ml/train/2_704_0.tfr"
        string_val: "gs://superb-avatar-149807-ml/train/2_705_0.tfr"
        string_val: "gs://superb-avatar-149807-ml/train/2_706_0.tfr"
        string_val: "gs://superb-avatar-149807-ml/train/2_707_0.tfr"
        string_val: "gs://superb-avatar-149807-ml/train/2_708_0.tfr"
        string_val: "gs://superb-avatar-149807-ml/train/2_708test_1.tfr"
        string_val: "gs://superb-avatar-149807-ml/train/2_709_0.tfr"
        string_val: "gs://superb-avatar-149807-ml/train/2_710_0.tfr"
        string_val: "gs://superb-avatar-149807-ml/train/2_712_0.tfr"
        string_val: "gs://superb-avatar-149807-ml/train/2_714_0.tfr"
        string_val: "gs://superb-avatar-149807-ml/train/2_714test_1.tfr"
        string_val: "gs://superb-avatar-149807-ml/train/2_715_0.tfr"
        string_val: "gs://superb-avatar-149807-ml/train/2_716_0.tfr"
        string_val: "gs://superb-avatar-149807-ml/train/2_717_0.tfr"
        string_val: "gs://superb-avatar-149807-ml/train/2_719_0.tfr"
        string_val: "gs://superb-avatar-149807-ml/train/2_71_1.tfr"
        string_val: "gs://superb-avatar-149807-ml/train/2_71test_1.tfr"
        string_val: "gs://superb-avatar-149807-ml/train/2_720_0.tfr"
        string_val: "gs://superb-avatar-149807-ml/train/2_721_0.tfr"
        string_val: "gs://superb-avatar-149807-ml/train/2_722_0.tfr"
        string_val: "gs://superb-avatar-149807-ml/train/2_724_0.tfr"
        string_val: "gs://superb-avatar-149807-ml/train/2_725_0.tfr"
        string_val: "gs://superb-avatar-149807-ml/train/2_726_0.tfr"
        string_val: "gs://superb-avatar-149807-ml/train/2_727_0.tfr"
        string_val: "gs://superb-avatar-149807-ml/train/2_728_0.tfr"
        string_val: "gs://superb-avatar-149807-ml/train/2_729_0.tfr"
        string_val: "gs://superb-avatar-149807-ml/train/2_730_0.tfr"
        string_val: "gs://superb-avatar-149807-ml/train/2_731_0.tfr"
        string_val: "gs://superb-avatar-149807-ml/train/2_732_0.tfr"
        string_val: "gs://superb-avatar-149807-ml/train/2_733_0.tfr"
        string_val: "gs://superb-avatar-149807-ml/train/2_734_0.tfr"
        string_val: "gs://superb-avatar-149807-ml/train/2_735_0.tfr"
        string_val: "gs://superb-avatar-149807-ml/train/2_736_0.tfr"
        string_val: "gs://superb-avatar-149807-ml/train/2_737_0.tfr"
        string_val: "gs://superb-avatar-149807-ml/train/2_738_0.tfr"
        string_val: "gs://superb-avatar-149807-ml/train/2_73_1.tfr"
        string_val: "gs://superb-avatar-149807-ml/train/2_740_0.tfr"
        string_val: "gs://superb-avatar-149807-ml/train/2_741_0.tfr"
        string_val: "gs://superb-avatar-149807-ml/train/2_743_0.tfr"
        string_val: "gs://superb-avatar-149807-ml/train/2_744_0.tfr"
        string_val: "gs://superb-avatar-149807-ml/train/2_746_0.tfr"
        string_val: "gs://superb-avatar-149807-ml/train/2_747_0.tfr"
        string_val: "gs://superb-avatar-149807-ml/train/2_748_0.tfr"
        string_val: "gs://superb-avatar-149807-ml/train/2_74_1.tfr"
        string_val: "gs://superb-avatar-149807-ml/train/2_751_0.tfr"
        string_val: "gs://superb-avatar-149807-ml/train/2_752_0.tfr"
        string_val: "gs://superb-avatar-149807-ml/train/2_753_0.tfr"
        string_val: "gs://superb-avatar-149807-ml/train/2_754_0.tfr"
        string_val: "gs://superb-avatar-149807-ml/train/2_756_0.tfr"
        string_val: "gs://superb-avatar-149807-ml/train/2_757_0.tfr"
        string_val: "gs://superb-avatar-149807-ml/train/2_758_0.tfr"
        string_val: "gs://superb-avatar-149807-ml/train/2_75_1.tfr"
        string_val: "gs://superb-avatar-149807-ml/train/2_760_0.tfr"
        string_val: "gs://superb-avatar-149807-ml/train/2_760test_1.tfr"
        string_val: "gs://superb-avatar-149807-ml/train/2_762_0.tfr"
        string_val: "gs://superb-avatar-149807-ml/train/2_767test_1.tfr"
        string_val: "gs://superb-avatar-149807-ml/train/2_77_1.tfr"
        string_val: "gs://superb-avatar-149807-ml/train/2_781_0.tfr"
        string_val: "gs://superb-avatar-149807-ml/train/2_782_0.tfr"
        string_val: "gs://superb-avatar-149807-ml/train/2_783_0.tfr"
        string_val: "gs://superb-avatar-149807-ml/train/2_785_0.tfr"
        string_val: "gs://superb-avatar-149807-ml/train/2_786_0.tfr"
        string_val: "gs://superb-avatar-149807-ml/train/2_788_0.tfr"
        string_val: "gs://superb-avatar-149807-ml/train/2_789_0.tfr"
        string_val: "gs://superb-avatar-149807-ml/train/2_790_0.tfr"
        string_val: "gs://superb-avatar-149807-ml/train/2_791_0.tfr"
        string_val: "gs://superb-avatar-149807-ml/train/2_792_0.tfr"
        string_val: "gs://superb-avatar-149807-ml/train/2_793_0.tfr"
        string_val: "gs://superb-avatar-149807-ml/train/2_794_0.tfr"
        string_val: "gs://superb-avatar-149807-ml/train/2_795_0.tfr"
        string_val: "gs://superb-avatar-149807-ml/train/2_796_0.tfr"
        string_val: "gs://superb-avatar-149807-ml/train/2_797_0.tfr"
        string_val: "gs://superb-avatar-149807-ml/train/2_798_0.tfr"
        string_val: "gs://superb-avatar-149807-ml/train/2_799_0.tfr"
        string_val: "gs://superb-avatar-149807-ml/train/2_79_0.tfr"
        string_val: "gs://superb-avatar-149807-ml/train/2_79_1.tfr"
        string_val: "gs://superb-avatar-149807-ml/train/2_7_0.tfr"
        string_val: "gs://superb-avatar-149807-ml/train/2_7_1.tfr"
        string_val: "gs://superb-avatar-149807-ml/train/2_800_0.tfr"
        string_val: "gs://superb-avatar-149807-ml/train/2_803_0.tfr"
        string_val: "gs://superb-avatar-149807-ml/train/2_805_0.tfr"
        string_val: "gs://superb-avatar-149807-ml/train/2_806_0.tfr"
        string_val: "gs://superb-avatar-149807-ml/train/2_807_0.tfr"
        string_val: "gs://superb-avatar-149807-ml/train/2_809_0.tfr"
        string_val: "gs://superb-avatar-149807-ml/train/2_80_0.tfr"
        string_val: "gs://superb-avatar-149807-ml/train/2_80_1.tfr"
        string_val: "gs://superb-avatar-149807-ml/train/2_810_0.tfr"
        string_val: "gs://superb-avatar-149807-ml/train/2_811_0.tfr"
        string_val: "gs://superb-avatar-149807-ml/train/2_815_0.tfr"
        string_val: "gs://superb-avatar-149807-ml/train/2_816_0.tfr"
        string_val: "gs://superb-avatar-149807-ml/train/2_817_0.tfr"
        string_val: "gs://superb-avatar-149807-ml/train/2_818_0.tfr"
…
  op: "IsVariableInitialized"
  input: "eegnet_v2/hidden/layer1/norm_filterXgate/moving_mean"
  device: "/job:ps/task:1"
  attr {
    key: "_class"
    value {
      list {
        s: "loc:@eegnet_v2/hidden/layer1/norm_filterXgate/moving_mean"
      }
    }
  }
  attr {
    key: "_output_shapes"
    value {
      list {
        shape {
        }
      }
    }
  }
  attr {
    key: "dtype"
    value {
      type: DT_FLOAT
    }
  }
}
node {
  name: "init_ops/report_uninitialized_variables/IsVariableInitialized_8"
  op: "IsVariableInitialized"
  input: "eegnet_v2/hidden/layer1/norm_filterXgate/moving_variance"
  device: "/job:ps/task:0"
  attr {
    key: "_class"
    value {
      list {
        s: "loc:@eegnet_v2/hidden/layer1/norm_filterXgate/moving_variance"
      }
    }
  }
  attr {
    key: "_output_shapes"
    value {
      list {
        shape {
        }
      }
    }
  }
  attr {
    key: "dtype"
    value {
      type: DT_FLOAT
    }
  }
}
node {
  name: "init_ops/report_uninitialized_variables/IsVariableInitialized_9"
  op: "IsVariableInitialized"
  input: "eegnet_v2/hidden/layer2/dilconv/weights"
  device: "/job:ps/task:1"
  attr {
    key: "_class"
    value {
      list {
        s: "loc:@eegnet_v2/hidden/layer2/dilconv/weights"
      }
    }
  }
  attr {
    key: "_output_shapes"
    value {
      list {
        shape {
        }
      }
    }
  }
  attr {
    key: "dtype"
    value {
      type: DT_FLOAT
    }
  }
}
node {
  name: "init_ops/report_uninitialized_variables/IsVariableInitialized_10"
  op: "IsVariableInitialized"
  input: "eegnet_v2/hidden/layer2/dilconv/biases"
  device: "/job:ps/task:0"
  attr {
    key: "_class"
    value {
      list {
        s: "loc:@eegnet_v2/hidden/layer2/dilconv/biases"
      }
    }
  }
  attr {
    key: "_output_shapes"
    value {
      list {
        shape {
        }
      }
    }
  }
  attr {
    key: "dtype"
    value {
      type: DT_FLOAT
    }
  }
}
node {
  name: "init_ops/report_uninitialized_variables/IsVariableInitialized_11"
  op: "IsVariableInitialized"
  input: "eegnet_v2/hidden/layer2/norm_filterXgate/beta"
  device: "/job:ps/task:1"
  attr {
    key: "_class"
    value {
      list {
        s: "loc:@eegnet_v2/hidden/layer2/norm_filterXgate/beta"
      }
    }
  }
  attr {
    key: "_output_shapes"
    value {
      list {
        shape {
        }
      }
    }
  }
  attr {
    key: "dtype"
    value {
      type: DT_FLOAT
    }
  }
}
node {
  name: "init_ops/report_uninitialized_variables/IsVariableInitialized_12"
  op: "IsVariableInitialized"
  input: "eegnet_v2/hidden/layer2/norm_filterXgate/moving_mean"
  device: "/job:ps/task:0"
  attr {
    key: "_class"
    value {
      list {
        s: "loc:@eegnet_v2/hidden/layer2/norm_filterXgate/moving_mean"
      }
    }
  }
  attr {
    key: "_output_shapes"
    value {
      list {
        shape {
        }
      }
    }
  }
  attr {
    key: "dtype"
    value {
      type: DT_FLOAT
    }
  }
}
node {
  name: "init_ops/report_uninitialized_variables/IsVariableInitialized_13"
  op: "IsVariableInitialized"
  input: "eegnet_v2/hidden/layer2/norm_filterXgate/moving_variance"
  device: "/job:ps/task:1"
  attr {
    key: "_class"
    value {
      list {
        s: "loc:@eegnet_v2/hidden/layer2/norm_filterXgate/moving_variance"
      }
    }
  }
  attr {
    key: "_output_shapes"
    value {
      list {
        shape {
        }
      }
    }
  }
  attr {
    key: "dtype"
    value {
      type: DT_FLOAT
    }
  }
}
node {
  name: "init_ops/report_uninitialized_variables/IsVariableInitialized_14"
  op: "IsVariableInitialized"
  input: "eegnet_v2/logits/1x1compress/weights"
  device: "/job:ps/task:0"
  attr {
    key: "_class"
    value {
      list {
        s: "loc:@eegnet_v2/logits/1x1compress/weights"
      }
    }
  }
  attr {
    key: "_output_shapes"
    value {
      list {
        shape {
        }
      }
    }
  }
  attr {
    key: "dtype"
    value {
      type: DT_FLOAT
    }
  }
}
node {
  name: "init_ops/report_uninitialized_variables/IsVariableInitialized_15"
  op: "IsVariableInitialized"
  input: "eegnet_v2/logits/1x1compress/BatchNorm/beta"
  device: "/job:ps/task:1"
  attr {
    key: "_class"
    value {
      list {
        s: "loc:@eegnet_v2/logits/1x1compress/BatchNorm/beta"
      }
    }
  }
  attr {
    key: "_output_shapes"
    value {
      list {
        shape {
        }
      }
    }
  }
  attr {
    key: "dtype"
    value {
      type: DT_FLOAT
    }
  }
}
node {
  name: "init_ops/report_uninitialized_variables/IsVariableInitialized_16"
  op: "IsVariableInitialized"
  input: "eegnet_v2/logits/1x1compress/BatchNorm/moving_mean"
  device: "/job:ps/task:0"
  attr {
    key: "_class"
    value {
      list {
        s: "loc:@eegnet_v2/logits/1x1compress/BatchNorm/moving_mean"
      }
    }
  }
  attr {
    key: "_output_shapes"
    value {
      list {
        shape {
        }
      }
    }
  }
  attr {
    key: "dtype"
    value {
      type: DT_FLOAT
    }
  }
}
node {
  name: "init_ops/report_uninitialized_variables/IsVariableInitialized_17"
  op: "IsVariableInitialized"
  input: "eegnet_v2/logits/1x1compress/BatchNorm/moving_variance"
  device: "/job:ps/task:1"
  attr {
    key: "_class"
    value {
      list {
        s: "loc:@eegnet_v2/logits/1x1compress/BatchNorm/moving_variance"
      }
    }
  }
  attr {
    key: "_output_shapes"
    value {
      list {
        shape {
        }
      }
    }
  }
  attr {
    key: "dtype"
    value {
      type: DT_FLOAT
    }
  }
}
node {
  name: "init_ops/report_uninitialized_variables/IsVariableInitialized_18"
  op: "IsVariableInitialized"
  input: "eegnet_v2/logits/1x3reduce1/weights"
  device: "/job:ps/task:0"
  attr {
    key: "_class"
    value {
      list {
        s: "loc:@eegnet_v2/logits/1x3reduce1/weights"
      }
    }
  }
  attr {
    key: "_output_shapes"
    value {
      list {
        shape {
        }
      }
    }
  }
  attr {
    key: "dtype"
    value {
      type: DT_FLOAT
    }
  }
}
node {
  name: "init_ops/report_uninitialized_variables/IsVariableInitialized_19"
  op: "IsVariableInitialized"
  input: "eegnet_v2/logits/1x3reduce1/BatchNorm/beta"
  device: "/job:ps/task:1"
  attr {
    key: "_class"
    value {
      list {
        s: "loc:@eegnet_v2/logits/1x3reduce1/BatchNorm/beta"
      }
    }
  }
  attr {
    key: "_output_shapes"
    value {
      list {
        shape {
        }
      }
    }
  }
  attr {
    key: "dtype"
    value {
      type: DT_FLOAT
    }
  }
}
node {
  name: "init_ops/report_uninitialized_variables/IsVariableInitialized_20"
  op: "IsVariableInitialized"
  input: "eegnet_v2/logits/1x3reduce1/BatchNorm/moving_mean"
  device: "/job:ps/task:0"
  attr {
    key: "_class"
    value {
      list {
        s: "loc:@eegnet_v2/logits/1x3reduce1/BatchNorm/moving_mean"
      }
    }
  }
  attr {
    key: "_output_shapes"
    value {
      list {
        shape {
        }
      }
    }
  }
  attr {
    key: "dtype"
    value {
      type: DT_FLOAT
    }
  }
}
node {
  name: "init_ops/report_uninitialized_variables/IsVariableInitialized_21"
  op: "IsVariableInitialized"
  input: "eegnet_v2/logits/1x3reduce1/BatchNorm/moving_variance"
  device: "/job:ps/task:1"
  attr {
    key: "_class"
    value {
      list {
        s: "loc:@eegnet_v2/logits/1x3reduce1/BatchNorm/moving_variance"
      }
    }
  }
  attr {
    key: "_output_shapes"
    value {
      list {
        shape {
        }
      }
    }
  }
  attr {
    key: "dtype"
    value {
      type: DT_FLOAT
    }
  }
}
node {
  name: "init_ops/report_uninitialized_variables/IsVariableInitialized_22"
  op: "IsVariableInitialized"
  input: "eegnet_v2/logits/1x3reduce2/weights"
  device: "/job:ps/task:0"
  attr {
    key: "_class"
    value {
      list {
        s: "loc:@eegnet_v2/logits/1x3reduce2/weights"
      }
    }
  }
  attr {
    key: "_output_shapes"
    value {
      list {
        shape {
        }
      }
    }
  }
  attr {
    key: "dtype"
    value {
      type: DT_FLOAT
    }
  }
}
node {
  name: "init_ops/report_uninitialized_variables/IsVariableInitialized_23"
  op: "IsVariableInitialized"
  input: "eegnet_v2/logits/1x3reduce2/BatchNorm/beta"
  device: "/job:ps/task:1"
  attr {
    key: "_class"
    value {
      list {
        s: "loc:@eegnet_v2/logits/1x3reduce2/BatchNorm/beta"
      }
    }
  }
  attr {
    key: "_output_shapes"
    value {
      list {
        shape {
        }
      }
    }
  }
  attr {
    key: "dtype"
    value {
      type: DT_FLOAT
    }
  }
}
node {
  name: "init_ops/report_uninitialized_variables/IsVariableInitialized_24"
  op: "IsVariableInitialized"
  input: "eegnet_v2/logits/1x3reduce2/BatchNorm/moving_mean"
  device: "/job:ps/task:0"
  attr {
    key: "_class"
    value {
      list {
        s: "loc:@eegnet_v2/logits/1x3reduce2/BatchNorm/moving_mean"
      }
    }
  }
  attr {
    key: "_output_shapes"
    value {
      list {
        shape {
        }
      }
    }
  }
  attr {
    key: "dtype"
    value {
      type: DT_FLOAT
    }
  }
}
node {
  name: "init_ops/report_uninitialized_variables/IsVariableInitialized_25"
  op: "IsVariableInitialized"
  input: "eegnet_v2/logits/1x3reduce2/BatchNorm/moving_variance"
  device: "/job:ps/task:1"
  attr {
    key: "_class"
    value {
      list {
        s: "loc:@eegnet_v2/logits/1x3reduce2/BatchNorm/moving_variance"
      }
    }
  }
  attr {
    key: "_output_shapes"
    value {
      list {
        shape {
        }
      }
    }
  }
  attr {
    key: "dtype"
    value {
      type: DT_FLOAT
    }
  }
}
node {
  name: "init_ops/report_uninitialized_variables/IsVariableInitialized_26"
  op: "IsVariableInitialized"
  input: "eegnet_v2/logits/logits/weights"
  device: "/job:ps/task:0"
  attr {
    key: "_class"
    value {
      list {
        s: "loc:@eegnet_v2/logits/logits/weights"
      }
    }
  }
  attr {
    key: "_output_shapes"
    value {
      list {
        shape {
        }
      }
    }
  }
  attr {
    key: "dtype"
    value {
      type: DT_FLOAT
    }
  }
}
node {
  name: "init_ops/report_uninitialized_variables/IsVariableInitialized_27"
  op: "IsVariableInitialized"
  input: "eegnet_v2/logits/logits/biases"
  device: "/job:ps/task:1"
  attr {
    key: "_class"
    value {
      list {
        s: "loc:@eegnet_v2/logits/logits/biases"
      }
    }
  }
  attr {
    key: "_output_shapes"
    value {
      list {
        shape {
        }
      }
    }
  }
  attr {
    key: "dtype"
    value {
      type: DT_FLOAT
    }
  }
}
node {
  name: "init_ops/report_uninitialized_variables/IsVariableInitialized_28"
  op: "IsVariableInitialized"
  input: "global_step"
  device: "/job:ps/task:0"
  attr {
    key: "_class"
    value {
      list {
        s: "loc:@global_step"
      }
    }
  }
  attr {
    key: "_output_shapes"
    value {
      list {
        shape {
        }
      }
    }
  }
  attr {
    key: "dtype"
    value {
      type: DT_INT64
    }
  }
}
node {
  name: "init_ops/report_uninitialized_variables/IsVariableInitialized_29"
  op: "IsVariableInitialized"
  input: "beta1_power"
  device: "/job:ps/task:0"
  attr {
    key: "_class"
    value {
      list {
        s: "loc:@eegnet_v2/input_layer/conv1/weights"
      }
    }
  }
  attr {
    key: "_output_shapes"
    value {
      list {
        shape {
        }
      }
    }
  }
  attr {
    key: "dtype"
    value {
      type: DT_FLOAT
    }
  }
}
node {
  name: "init_ops/report_uninitialized_variables/IsVariableInitialized_30"
  op: "IsVariableInitialized"
  input: "beta2_power"
  device: "/job:ps/task:0"
  attr {
    key: "_class"
    value {
      list {
        s: "loc:@eegnet_v2/input_layer/conv1/weights"
      }
    }
  }
  attr {
    key: "_output_shapes"
    value {
      list {
        shape {
        }
      }
    }
  }
  attr {
    key: "dtype"
    value {
      type: DT_FLOAT
    }
  }
}
node {
  name: "init_ops/report_uninitialized_variables/IsVariableInitialized_31"
  op: "IsVariableInitialized"
  input: "eegnet_v2/input_layer/conv1/weights/Adam"
  device: "/job:ps/task:0"
  attr {
    key: "_class"
    value {
      list {
        s: "loc:@eegnet_v2/input_layer/conv1/weights"
      }
    }
  }
  attr {
    key: "_output_shapes"
    value {
      list {
        shape {
        }
      }
    }
  }
  attr {
    key: "dtype"
    value {
      type: DT_FLOAT
    }
  }
}
node {
  name: "init_ops/report_uninitialized_variables/IsVariableInitialized_32"
  op: "IsVariableInitialized"
  input: "eegnet_v2/input_layer/conv1/weights/Adam_1"
  device: "/job:ps/task:0"
  attr {
    key: "_class"
    value {
      list {
        s: "loc:@eegnet_v2/input_layer/conv1/weights"
      }
    }
  }
  attr {
    key: "_output_shapes"
    value {
      list {
        shape {
        }
      }
    }
  }
  attr {
    key: "dtype"
    value {
      type: DT_FLOAT
    }
  }
}
node {
  name: "init_ops/report_uninitialized_variables/IsVariableInitialized_33"
  op: "IsVariableInitialized"
  input: "eegnet_v2/input_layer/conv1/BatchNorm/beta/Adam"
  device: "/job:ps/task:1"
  attr {
    key: "_class"
    value {
      list {
        s: "loc:@eegnet_v2/input_layer/conv1/BatchNorm/beta"
      }
    }
  }
  attr {
    key: "_output_shapes"
    value {
      list {
        shape {
        }
      }
    }
  }
  attr {
    key: "dtype"
    value {
      type: DT_FLOAT
    }
  }
}
node {
  name: "init_ops/report_uninitialized_variables/IsVariableInitialized_34"
  op: "IsVariableInitialized"
  input: "eegnet_v2/input_layer/conv1/BatchNorm/beta/Adam_1"
  device: "/job:ps/task:1"
  attr {
    key: "_class"
    value {
      list {
        s: "loc:@eegnet_v2/input_layer/conv1/BatchNorm/beta"
      }
    }
  }
  attr {
    key: "_output_shapes"
    value {
      list {
        shape {
        }
      }
    }
  }
  attr {
    key: "dtype"
    value {
      type: DT_FLOAT
    }
  }
}
node {
  name: "init_ops/report_uninitialized_variables/IsVariableInitialized_35"
  op: "IsVariableInitialized"
  input: "eegnet_v2/hidden/layer1/dilconv/weights/Adam"
  device: "/job:ps/task:0"
  attr {
    key: "_class"
    value {
      list {
        s: "loc:@eegnet_v2/hidden/layer1/dilconv/weights"
      }
    }
  }
  attr {
    key: "_output_shapes"
    value {
      list {
        shape {
        }
      }
    }
  }
  attr {
    key: "dtype"
    value {
      type: DT_FLOAT
    }
  }
}
node {
  name: "init_ops/report_uninitialized_variables/IsVariableInitialized_36"
  op: "IsVariableInitialized"
  input: "eegnet_v2/hidden/layer1/dilconv/weights/Adam_1"
  device: "/job:ps/task:0"
  attr {
    key: "_class"
    value {
      list {
        s: "loc:@eegnet_v2/hidden/layer1/dilconv/weights"
      }
    }
  }
  attr {
    key: "_output_shapes"
    value {
      list {
        shape {
        }
      }
    }
  }
  attr {
    key: "dtype"
    value {
      type: DT_FLOAT
    }
  }
}
node {
  name: "init_ops/report_uninitialized_variables/IsVariableInitialized_37"
  op: "IsVariableInitialized"
  input: "eegnet_v2/hidden/layer1/dilconv/biases/Adam"
  device: "/job:ps/task:1"
  attr {
    key: "_class"
    value {
      list {
        s: "loc:@eegnet_v2/hidden/layer1/dilconv/biases"
      }
    }
  }
  attr {
    key: "_output_shapes"
    value {
      list {
        shape {
        }
      }
    }
  }
  attr {
    key: "dtype"
    value {
      type: DT_FLOAT
    }
  }
}
node {
  name: "init_ops/report_uninitialized_variables/IsVariableInitialized_38"
  op: "IsVariableInitialized"
  input: "eegnet_v2/hidden/layer1/dilconv/biases/Adam_1"
  device: "/job:ps/task:1"
  attr {
    key: "_class"
    value {
      list {
        s: "loc:@eegnet_v2/hidden/layer1/dilconv/biases"
      }
    }
  }
  attr {
    key: "_output_shapes"
    value {
      list {
        shape {
        }
      }
    }
  }
  attr {
    key: "dtype"
    value {
      type: DT_FLOAT
    }
  }
}
node {
  name: "init_ops/report_uninitialized_variables/IsVariableInitialized_39"
  op: "IsVariableInitialized"
  input: "eegnet_v2/hidden/layer1/norm_filterXgate/beta/Adam"
  device: "/job:ps/task:0"
  attr {
    key: "_class"
    value {
      list {
        s: "loc:@eegnet_v2/hidden/layer1/norm_filterXgate/beta"
      }
    }
  }
  attr {
    key: "_output_shapes"
    value {
      list {
        shape {
        }
      }
    }
  }
  attr {
    key: "dtype"
    value {
      type: DT_FLOAT
    }
  }
}
node {
  name: "init_ops/report_uninitialized_variables/IsVariableInitialized_40"
  op: "IsVariableInitialized"
  input: "eegnet_v2/hidden/layer1/norm_filterXgate/beta/Adam_1"
  device: "/job:ps/task:0"
  attr {
    key: "_class"
    value {
      list {
        s: "loc:@eegnet_v2/hidden/layer1/norm_filterXgate/beta"
      }
    }
  }
  attr {
    key: "_output_shapes"
    value {
      list {
        shape {
        }
      }
    }
  }
  attr {
    key: "dtype"
    value {
      type: DT_FLOAT
    }
  }
}
node {
  name: "init_ops/report_uninitialized_variables/IsVariableInitialized_41"
  op: "IsVariableInitialized"
  input: "eegnet_v2/hidden/layer2/dilconv/weights/Adam"
  device: "/job:ps/task:1"
  attr {
    key: "_class"
    value {
      list {
        s: "loc:@eegnet_v2/hidden/layer2/dilconv/weights"
      }
    }
  }
  attr {
    key: "_output_shapes"
    value {
      list {
        shape {
        }
      }
    }
  }
  attr {
    key: "dtype"
    value {
      type: DT_FLOAT
    }
  }
}
node {
  name: "init_ops/report_uninitialized_variables/IsVariableInitialized_42"
  op: "IsVariableInitialized"
  input: "eegnet_v2/hidden/layer2/dilconv/weights/Adam_1"
  device: "/job:ps/task:1"
  attr {
    key: "_class"
    value {
      list {
        s: "loc:@eegnet_v2/hidden/layer2/dilconv/weights"
      }
    }
  }
  attr {
    key: "_output_shapes"
    value {
      list {
        shape {
        }
      }
    }
  }
  attr {
    key: "dtype"
    value {
      type: DT_FLOAT
    }
  }
}
node {
  name: "init_ops/report_uninitialized_variables/IsVariableInitialized_43"
  op: "IsVariableInitialized"
  input: "eegnet_v2/hidden/layer2/dilconv/biases/Adam"
  device: "/job:ps/task:0"
  attr {
    key: "_class"
    value {
      list {
        s: "loc:@eegnet_v2/hidden/layer2/dilconv/biases"
      }
    }
  }
  attr {
    key: "_output_shapes"
    value {
      list {
        shape {
        }
      }
    }
  }
  attr {
    key: "dtype"
    value {
      type: DT_FLOAT
    }
  }
}
node {
  name: "init_ops/report_uninitialized_variables/IsVariableInitialized_44"
  op: "IsVariableInitialized"
  input: "eegnet_v2/hidden/layer2/dilconv/biases/Adam_1"
  device: "/job:ps/task:0"
  attr {
    key: "_class"
    value {
      list {
        s: "loc:@eegnet_v2/hidden/layer2/dilconv/biases"
      }
    }
  }
  attr {
    key: "_output_shapes"
    value {
      list {
        shape {
        }
      }
    }
  }
  attr {
    key: "dtype"
    value {
      type: DT_FLOAT
    }
  }
}
node {
  name: "init_ops/report_uninitialized_variables/IsVariableInitialized_45"
  op: "IsVariableInitialized"
  input: "eegnet_v2/hidden/layer2/norm_filterXgate/beta/Adam"
  device: "/job:ps/task:1"
  attr {
    key: "_class"
    value {
      list {
        s: "loc:@eegnet_v2/hidden/layer2/norm_filterXgate/beta"
      }
    }
  }
  attr {
    key: "_output_shapes"
    value {
      list {
        shape {
        }
      }
    }
  }
  attr {
    key: "dtype"
    value {
      type: DT_FLOAT
    }
  }
}
node {
  name: "init_ops/report_uninitialized_variables/IsVariableInitialized_46"
  op: "IsVariableInitialized"
  input: "eegnet_v2/hidden/layer2/norm_filterXgate/beta/Adam_1"
  device: "/job:ps/task:1"
  attr {
    key: "_class"
    value {
      list {
        s: "loc:@eegnet_v2/hidden/layer2/norm_filterXgate/beta"
      }
    }
  }
  attr {
    key: "_output_shapes"
    value {
      list {
        shape {
        }
      }
    }
  }
  attr {
    key: "dtype"
    value {
      type: DT_FLOAT
    }
  }
}
node {
  name: "init_ops/report_uninitialized_variables/IsVariableInitialized_47"
  op: "IsVariableInitialized"
  input: "eegnet_v2/logits/1x1compress/weights/Adam"
  device: "/job:ps/task:0"
  attr {
    key: "_class"
    value {
      list {
        s: "loc:@eegnet_v2/logits/1x1compress/weights"
      }
    }
  }
  attr {
    key: "_output_shapes"
    value {
      list {
        shape {
        }
      }
    }
  }
  attr {
    key: "dtype"
    value {
      type: DT_FLOAT
    }
  }
}
node {
  name: "init_ops/report_uninitialized_variables/IsVariableInitialized_48"
  op: "IsVariableInitialized"
  input: "eegnet_v2/logits/1x1compress/weights/Adam_1"
  device: "/job:ps/task:0"
  attr {
    key: "_class"
    value {
      list {
        s: "loc:@eegnet_v2/logits/1x1compress/weights"
      }
    }
  }
  attr {
    key: "_output_shapes"
    value {
      list {
        shape {
        }
      }
    }
  }
  attr {
    key: "dtype"
    value {
      type: DT_FLOAT
    }
  }
}
node {
  name: "init_ops/report_uninitialized_variables/IsVariableInitialized_49"
  op: "IsVariableInitialized"
  input: "eegnet_v2/logits/1x1compress/BatchNorm/beta/Adam"
  device: "/job:ps/task:1"
  attr {
    key: "_class"
    value {
      list {
        s: "loc:@eegnet_v2/logits/1x1compress/BatchNorm/beta"
      }
    }
  }
  attr {
    key: "_output_shapes"
    value {
      list {
        shape {
        }
      }
    }
  }
  attr {
    key: "dtype"
    value {
      type: DT_FLOAT
    }
  }
}
node {
  name: "init_ops/report_uninitialized_variables/IsVariableInitialized_50"
  op: "IsVariableInitialized"
  input: "eegnet_v2/logits/1x1compress/BatchNorm/beta/Adam_1"
  device: "/job:ps/task:1"
  attr {
    key: "_class"
    value {
      list {
        s: "loc:@eegnet_v2/logits/1x1compress/BatchNorm/beta"
      }
    }
  }
  attr {
    key: "_output_shapes"
    value {
      list {
        shape {
        }
      }
    }
  }
  attr {
    key: "dtype"
    value {
      type: DT_FLOAT
    }
  }
}
node {
  name: "init_ops/report_uninitialized_variables/IsVariableInitialized_51"
  op: "IsVariableInitialized"
  input: "eegnet_v2/logits/1x3reduce1/weights/Adam"
  device: "/job:ps/task:0"
  attr {
    key: "_class"
    value {
      list {
        s: "loc:@eegnet_v2/logits/1x3reduce1/weights"
      }
    }
  }
  attr {
    key: "_output_shapes"
    value {
      list {
        shape {
        }
      }
    }
  }
  attr {
    key: "dtype"
    value {
      type: DT_FLOAT
    }
  }
}
node {
  name: "init_ops/report_uninitialized_variables/IsVariableInitialized_52"
  op: "IsVariableInitialized"
  input: "eegnet_v2/logits/1x3reduce1/weights/Adam_1"
  device: "/job:ps/task:0"
  attr {
    key: "_class"
    value {
      list {
        s: "loc:@eegnet_v2/logits/1x3reduce1/weights"
      }
    }
  }
  attr {
    key: "_output_shapes"
    value {
      list {
        shape {
        }
      }
    }
  }
  attr {
    key: "dtype"
    value {
      type: DT_FLOAT
    }
  }
}
node {
  name: "init_ops/report_uninitialized_variables/IsVariableInitialized_53"
  op: "IsVariableInitialized"
  input: "eegnet_v2/logits/1x3reduce1/BatchNorm/beta/Adam"
  device: "/job:ps/task:1"
  attr {
    key: "_class"
    value {
      list {
        s: "loc:@eegnet_v2/logits/1x3reduce1/BatchNorm/beta"
      }
    }
  }
  attr {
    key: "_output_shapes"
    value {
      list {
        shape {
        }
      }
    }
  }
  attr {
    key: "dtype"
    value {
      type: DT_FLOAT
    }
  }
}
node {
  name: "init_ops/report_uninitialized_variables/IsVariableInitialized_54"
  op: "IsVariableInitialized"
  input: "eegnet_v2/logits/1x3reduce1/BatchNorm/beta/Adam_1"
  device: "/job:ps/task:1"
  attr {
    key: "_class"
    value {
      list {
        s: "loc:@eegnet_v2/logits/1x3reduce1/BatchNorm/beta"
      }
    }
  }
  attr {
    key: "_output_shapes"
    value {
      list {
        shape {
        }
      }
    }
  }
  attr {
    key: "dtype"
    value {
      type: DT_FLOAT
    }
  }
}
node {
  name: "init_ops/report_uninitialized_variables/IsVariableInitialized_55"
  op: "IsVariableInitialized"
  input: "eegnet_v2/logits/1x3reduce2/weights/Adam"
  device: "/job:ps/task:0"
  attr {
    key: "_class"
    value {
      list {
        s: "loc:@eegnet_v2/logits/1x3reduce2/weights"
      }
    }
  }
  attr {
    key: "_output_shapes"
    value {
      list {
        shape {
        }
      }
    }
  }
  attr {
    key: "dtype"
    value {
      type: DT_FLOAT
    }
  }
}
node {
  name: "init_ops/report_uninitialized_variables/IsVariableInitialized_56"
  op: "IsVariableInitialized"
  input: "eegnet_v2/logits/1x3reduce2/weights/Adam_1"
  device: "/job:ps/task:0"
  attr {
    key: "_class"
    value {
      list {
        s: "loc:@eegnet_v2/logits/1x3reduce2/weights"
      }
    }
  }
  attr {
    key: "_output_shapes"
    value {
      list {
        shape {
        }
      }
    }
  }
  attr {
    key: "dtype"
    value {
      type: DT_FLOAT
    }
  }
}
node {
  name: "init_ops/report_uninitialized_variables/IsVariableInitialized_57"
  op: "IsVariableInitialized"
  input: "eegnet_v2/logits/1x3reduce2/BatchNorm/beta/Adam"
  device: "/job:ps/task:1"
  attr {
    key: "_class"
    value {
      list {
        s: "loc:@eegnet_v2/logits/1x3reduce2/BatchNorm/beta"
      }
    }
  }
  attr {
    key: "_output_shapes"
    value {
      list {
        shape {
        }
      }
    }
  }
  attr {
    key: "dtype"
    value {
      type: DT_FLOAT
    }
  }
}
node {
  name: "init_ops/report_uninitialized_variables/IsVariableInitialized_58"
  op: "IsVariableInitialized"
  input: "eegnet_v2/logits/1x3reduce2/BatchNorm/beta/Adam_1"
  device: "/job:ps/task:1"
  attr {
    key: "_class"
    value {
      list {
        s: "loc:@eegnet_v2/logits/1x3reduce2/BatchNorm/beta"
      }
    }
  }
  attr {
    key: "_output_shapes"
    value {
      list {
        shape {
        }
      }
    }
  }
  attr {
    key: "dtype"
    value {
      type: DT_FLOAT
    }
  }
}
node {
  name: "init_ops/report_uninitialized_variables/IsVariableInitialized_59"
  op: "IsVariableInitialized"
  input: "eegnet_v2/logits/logits/weights/Adam"
  device: "/job:ps/task:0"
  attr {
    key: "_class"
    value {
      list {
        s: "loc:@eegnet_v2/logits/logits/weights"
      }
    }
  }
  attr {
    key: "_output_shapes"
    value {
      list {
        shape {
        }
      }
    }
  }
  attr {
    key: "dtype"
    value {
      type: DT_FLOAT
    }
  }
}
node {
  name: "init_ops/report_uninitialized_variables/IsVariableInitialized_60"
  op: "IsVariableInitialized"
  input: "eegnet_v2/logits/logits/weights/Adam_1"
  device: "/job:ps/task:0"
  attr {
    key: "_class"
    value {
      list {
        s: "loc:@eegnet_v2/logits/logits/weights"
      }
    }
  }
  attr {
    key: "_output_shapes"
    value {
      list {
        shape {
        }
      }
    }
  }
  attr {
    key: "dtype"
    value {
      type: DT_FLOAT
    }
  }
}
node {
  name: "init_ops/report_uninitialized_variables/IsVariableInitialized_61"
  op: "IsVariableInitialized"
  input: "eegnet_v2/logits/logits/biases/Adam"
  device: "/job:ps/task:1"
  attr {
    key: "_class"
    value {
      list {
        s: "loc:@eegnet_v2/logits/logits/biases"
      }
    }
  }
  attr {
    key: "_output_shapes"
    value {
      list {
        shape {
        }
      }
    }
  }
  attr {
    key: "dtype"
    value {
      type: DT_FLOAT
    }
  }
}
node {
  name: "init_ops/report_uninitialized_variables/IsVariableInitialized_62"
  op: "IsVariableInitialized"
  input: "eegnet_v2/logits/logits/biases/Adam_1"
  device: "/job:ps/task:1"
  attr {
    key: "_class"
    value {
      list {
        s: "loc:@eegnet_v2/logits/logits/biases"
      }
    }
  }
  attr {
    key: "_output_shapes"
    value {
      list {
        shape {
        }
      }
    }
  }
  attr {
    key: "dtype"
    value {
      type: DT_FLOAT
    }
  }
}
node {
  name: "init_ops/report_uninitialized_variables/pack"
  op: "Pack"
  input: "init_ops/report_uninitialized_variables/IsVariableInitialized"
  input: "init_ops/report_uninitialized_variables/IsVariableInitialized_1"
  input: "init_ops/report_uninitialized_variables/IsVariableInitialized_2"
  input: "init_ops/report_uninitialized_variables/IsVariableInitialized_3"
  input: "init_ops/report_uninitialized_variables/IsVariableInitialized_4"
  input: "init_ops/report_uninitialized_variables/IsVariableInitialized_5"
  input: "init_ops/report_uninitialized_variables/IsVariableInitialized_6"
  input: "init_ops/report_uninitialized_variables/IsVariableInitialized_7"
  input: "init_ops/report_uninitialized_variables/IsVariableInitialized_8"
  input: "init_ops/report_uninitialized_variables/IsVariableInitialized_9"
  input: "init_ops/report_uninitialized_variables/IsVariableInitialized_10"
  input: "init_ops/report_uninitialized_variables/IsVariableInitialized_11"
  input: "init_ops/report_uninitialized_variables/IsVariableInitialized_12"
  input: "init_ops/report_uninitialized_variables/IsVariableInitialized_13"
  input: "init_ops/report_uninitialized_variables/IsVariableInitialized_14"
  input: "init_ops/report_uninitialized_variables/IsVariableInitialized_15"
  input: "init_ops/report_uninitialized_variables/IsVariableInitialized_16"
  input: "init_ops/report_uninitialized_variables/IsVariableInitialized_17"
  input: "init_ops/report_uninitialized_variables/IsVariableInitialized_18"
  input: "init_ops/report_uninitialized_variables/IsVariableInitialized_19"
  input: "init_ops/report_uninitialized_variables/IsVariableInitialized_20"
  input: "init_ops/report_uninitialized_variables/IsVariableInitialized_21"
  input: "init_ops/report_uninitialized_variables/IsVariableInitialized_22"
  input: "init_ops/report_uninitialized_variables/IsVariableInitialized_23"
  input: "init_ops/report_uninitialized_variables/IsVariableInitialized_24"
  input: "init_ops/report_uninitialized_variables/IsVariableInitialized_25"
  input: "init_ops/report_uninitialized_variables/IsVariableInitialized_26"
  input: "init_ops/report_uninitialized_variables/IsVariableInitialized_27"
  input: "init_ops/report_uninitialized_variables/IsVariableInitialized_28"
  input: "init_ops/report_uninitialized_variables/IsVariableInitialized_29"
  input: "init_ops/report_uninitialized_variables/IsVariableInitialized_30"
  input: "init_ops/report_uninitialized_variables/IsVariableInitialized_31"
  input: "init_ops/report_uninitialized_variables/IsVariableInitialized_32"
  input: "init_ops/report_uninitialized_variables/IsVariableInitialized_33"
  input: "init_ops/report_uninitialized_variables/IsVariableInitialized_34"
  input: "init_ops/report_uninitialized_variables/IsVariableInitialized_35"
  input: "init_ops/report_uninitialized_variables/IsVariableInitialized_36"
  input: "init_ops/report_uninitialized_variables/IsVariableInitialized_37"
  input: "init_ops/report_uninitialized_variables/IsVariableInitialized_38"
  input: "init_ops/report_uninitialized_variables/IsVariableInitialized_39"
  input: "init_ops/report_uninitialized_variables/IsVariableInitialized_40"
  input: "init_ops/report_uninitialized_variables/IsVariableInitialized_41"
  input: "init_ops/report_uninitialized_variables/IsVariableInitialized_42"
  input: "init_ops/report_uninitialized_variables/IsVariableInitialized_43"
  input: "init_ops/report_uninitialized_variables/IsVariableInitialized_44"
  input: "init_ops/report_uninitialized_variables/IsVariableInitialized_45"
  input: "init_ops/report_uninitialized_variables/IsVariableInitialized_46"
  input: "init_ops/report_uninitialized_variables/IsVariableInitialized_47"
  input: "init_ops/report_uninitialized_variables/IsVariableInitialized_48"
  input: "init_ops/report_uninitialized_variables/IsVariableInitialized_49"
  input: "init_ops/report_uninitialized_variables/IsVariableInitialized_50"
  input: "init_ops/report_uninitialized_variables/IsVariableInitialized_51"
  input: "init_ops/report_uninitialized_variables/IsVariableInitialized_52"
  input: "init_ops/report_uninitialized_variables/IsVariableInitialized_53"
  input: "init_ops/report_uninitialized_variables/IsVariableInitialized_54"
  input: "init_ops/report_uninitialized_variables/IsVariableInitialized_55"
  input: "init_ops/report_uninitialized_variables/IsVariableInitialized_56"
  input: "init_ops/report_uninitialized_variables/IsVariableInitialized_57"
  input: "init_ops/report_uninitialized_variables/IsVariableInitialized_58"
  input: "init_ops/report_uninitialized_variables/IsVariableInitialized_59"
  input: "init_ops/report_uninitialized_variables/IsVariableInitialized_60"
  input: "init_ops/report_uninitialized_variables/IsVariableInitialized_61"
  input: "init_ops/report_uninitialized_variables/IsVariableInitialized_62"
  attr {
    key: "N"
    value {
      i: 63
    }
  }
  attr {
    key: "T"
    value {
      type: DT_BOOL
    }
  }
  attr {
    key: "_output_shapes"
    value {
      list {
        shape {
          dim {
            size: 63
          }
        }
      }
    }
  }
  attr {
    key: "axis"
    value {
      i: 0
    }
  }
}
node {
  name: "init_ops/report_uninitialized_variables/LogicalNot"
  op: "LogicalNot"
  input: "init_ops/report_uninitialized_variables/pack"
  attr {
    key: "_output_shapes"
    value {
      list {
        shape {
          dim {
            size: 63
          }
        }
      }
    }
  }
}
node {
  name: "init_ops/report_uninitialized_variables/Const"
  op: "Const"
  attr {
    key: "_output_shapes"
    value {
      list {
        shape {
          dim {
            size: 63
          }
        }
      }
    }
  }
  attr {
    key: "dtype"
    value {
      type: DT_STRING
    }
  }
  attr {
    key: "value"
    value {
      tensor {
        dtype: DT_STRING
        tensor_shape {
          dim {
            size: 63
          }
        }
        string_val: "eegnet_v2/input_layer/conv1/weights"
        string_val: "eegnet_v2/input_layer/conv1/BatchNorm/beta"
        string_val: "eegnet_v2/input_layer/conv1/BatchNorm/moving_mean"
        string_val: "eegnet_v2/input_layer/conv1/BatchNorm/moving_variance"
        string_val: "eegnet_v2/hidden/layer1/dilconv/weights"
        string_val: "eegnet_v2/hidden/layer1/dilconv/biases"
        string_val: "eegnet_v2/hidden/layer1/norm_filterXgate/beta"
        string_val: "eegnet_v2/hidden/layer1/norm_filterXgate/moving_mean"
        string_val: "eegnet_v2/hidden/layer1/norm_filterXgate/moving_variance"
        string_val: "eegnet_v2/hidden/layer2/dilconv/weights"
        string_val: "eegnet_v2/hidden/layer2/dilconv/biases"
        string_val: "eegnet_v2/hidden/layer2/norm_filterXgate/beta"
        string_val: "eegnet_v2/hidden/layer2/norm_filterXgate/moving_mean"
        string_val: "eegnet_v2/hidden/layer2/norm_filterXgate/moving_variance"
        string_val: "eegnet_v2/logits/1x1compress/weights"
        string_val: "eegnet_v2/logits/1x1compress/BatchNorm/beta"
        string_val: "eegnet_v2/logits/1x1compress/BatchNorm/moving_mean"
        string_val: "eegnet_v2/logits/1x1compress/BatchNorm/moving_variance"
        string_val: "eegnet_v2/logits/1x3reduce1/weights"
        string_val: "eegnet_v2/logits/1x3reduce1/BatchNorm/beta"
        string_val: "eegnet_v2/logits/1x3reduce1/BatchNorm/moving_mean"
        string_val: "eegnet_v2/logits/1x3reduce1/BatchNorm/moving_variance"
        string_val: "eegnet_v2/logits/1x3reduce2/weights"
        string_val: "eegnet_v2/logits/1x3reduce2/BatchNorm/beta"
        string_val: "eegnet_v2/logits/1x3reduce2/BatchNorm/moving_mean"
        string_val: "eegnet_v2/logits/1x3reduce2/BatchNorm/moving_variance"
        string_val: "eegnet_v2/logits/logits/weights"
        string_val: "eegnet_v2/logits/logits/biases"
        string_val: "global_step"
        string_val: "beta1_power"
        string_val: "beta2_power"
        string_val: "eegnet_v2/input_layer/conv1/weights/Adam"
        string_val: "eegnet_v2/input_layer/conv1/weights/Adam_1"
        string_val: "eegnet_v2/input_layer/conv1/BatchNorm/beta/Adam"
        string_val: "eegnet_v2/input_layer/conv1/BatchNorm/beta/Adam_1"
        string_val: "eegnet_v2/hidden/layer1/dilconv/weights/Adam"
        string_val: "eegnet_v2/hidden/layer1/dilconv/weights/Adam_1"
        string_val: "eegnet_v2/hidden/layer1/dilconv/biases/Adam"
        string_val: "eegnet_v2/hidden/layer1/dilconv/biases/Adam_1"
        string_val: "eegnet_v2/hidden/layer1/norm_filterXgate/beta/Adam"
        string_val: "eegnet_v2/hidden/layer1/norm_filterXgate/beta/Adam_1"
        string_val: "eegnet_v2/hidden/layer2/dilconv/weights/Adam"
        string_val: "eegnet_v2/hidden/layer2/dilconv/weights/Adam_1"
        string_val: "eegnet_v2/hidden/layer2/dilconv/biases/Adam"
        string_val: "eegnet_v2/hidden/layer2/dilconv/biases/Adam_1"
        string_val: "eegnet_v2/hidden/layer2/norm_filterXgate/beta/Adam"
        string_val: "eegnet_v2/hidden/layer2/norm_filterXgate/beta/Adam_1"
        string_val: "eegnet_v2/logits/1x1compress/weights/Adam"
        string_val: "eegnet_v2/logits/1x1compress/weights/Adam_1"
        string_val: "eegnet_v2/logits/1x1compress/BatchNorm/beta/Adam"
        string_val: "eegnet_v2/logits/1x1compress/BatchNorm/beta/Adam_1"
        string_val: "eegnet_v2/logits/1x3reduce1/weights/Adam"
        string_val: "eegnet_v2/logits/1x3reduce1/weights/Adam_1"
        string_val: "eegnet_v2/logits/1x3reduce1/BatchNorm/beta/Adam"
        string_val: "eegnet_v2/logits/1x3reduce1/BatchNorm/beta/Adam_1"
        string_val: "eegnet_v2/logits/1x3reduce2/weights/Adam"
        string_val: "eegnet_v2/logits/1x3reduce2/weights/Adam_1"
        string_val: "eegnet_v2/logits/1x3reduce2/BatchNorm/beta/Adam"
        string_val: "eegnet_v2/logits/1x3reduce2/BatchNorm/beta/Adam_1"
        string_val: "eegnet_v2/logits/logits/weights/Adam"
        string_val: "eegnet_v2/logits/logits/weights/Adam_1"
        string_val: "eegnet_v2/logits/logits/biases/Adam"
        string_val: "eegnet_v2/logits/logits/biases/Adam_1"
      }
    }
  }
}
node {
  name: "init_ops/report_uninitialized_variables/boolean_mask/Shape"
  op: "Const"
  attr {
    key: "_output_shapes"
    value {
      list {
        shape {
          dim {
            size: 1
          }
        }
      }
    }
  }
  attr {
    key: "dtype"
    value {
      type: DT_INT32
    }
  }
  attr {
    key: "value"
    value {
      tensor {
        dtype: DT_INT32
        tensor_shape {
          dim {
            size: 1
          }
        }
        int_val: 63
      }
    }
  }
}
node {
  name: "init_ops/report_uninitialized_variables/boolean_mask/strided_slice/stack"
  op: "Const"
  attr {
    key: "_output_shapes"
    value {
      list {
        shape {
          dim {
            size: 1
          }
        }
      }
    }
  }
  attr {
    key: "dtype"
    value {
      type: DT_INT32
    }
  }
  attr {
    key: "value"
    value {
      tensor {
        dtype: DT_INT32
        tensor_shape {
          dim {
            size: 1
          }
        }
        int_val: 1
      }
    }
  }
}
node {
  name: "init_ops/report_uninitialized_variables/boolean_mask/strided_slice/stack_1"
  op: "Const"
  attr {
    key: "_output_shapes"
    value {
      list {
        shape {
          dim {
            size: 1
          }
        }
      }
    }
  }
  attr {
    key: "dtype"
    value {
      type: DT_INT32
    }
  }
  attr {
    key: "value"
    value {
      tensor {
        dtype: DT_INT32
        tensor_shape {
          dim {
            size: 1
          }
        }
        int_val: 0
      }
    }
  }
}
node {
  name: "init_ops/report_uninitialized_variables/boolean_mask/strided_slice/stack_2"
  op: "Const"
  attr {
    key: "_output_shapes"
    value {
      list {
        shape {
          dim {
            size: 1
          }
        }
      }
    }
  }
  attr {
    key: "dtype"
    value {
      type: DT_INT32
    }
  }
  attr {
    key: "value"
    value {
      tensor {
        dtype: DT_INT32
        tensor_shape {
          dim {
            size: 1
          }
        }
        int_val: 1
      }
    }
  }
}
node {
  name: "init_ops/report_uninitialized_variables/boolean_mask/strided_slice"
  op: "StridedSlice"
  input: "init_ops/report_uninitialized_variables/boolean_mask/Shape"
  input: "init_ops/report_uninitialized_variables/boolean_mask/strided_slice/stack"
  input: "init_ops/report_uninitialized_variables/boolean_mask/strided_slice/stack_1"
  input: "init_ops/report_uninitialized_variables/boolean_mask/strided_slice/stack_2"
  attr {
    key: "Index"
    value {
      type: DT_INT32
    }
  }
  attr {
    key: "T"
    value {
      type: DT_INT32
    }
  }
  attr {
    key: "_output_shapes"
    value {
      list {
        shape {
          dim {
          }
        }
      }
    }
  }
  attr {
    key: "begin_mask"
    value {
      i: 0
    }
  }
  attr {
    key: "ellipsis_mask"
    value {
      i: 0
    }
  }
  attr {
    key: "end_mask"
    value {
      i: 1
    }
  }
  attr {
    key: "new_axis_mask"
    value {
      i: 0
    }
  }
  attr {
    key: "shrink_axis_mask"
    value {
      i: 0
    }
  }
}
node {
  name: "init_ops/report_uninitialized_variables/boolean_mask/concat/concat_dim"
  op: "Const"
  attr {
    key: "_output_shapes"
    value {
      list {
        shape {
        }
      }
    }
  }
  attr {
    key: "dtype"
    value {
      type: DT_INT32
    }
  }
  attr {
    key: "value"
    value {
      tensor {
        dtype: DT_INT32
        tensor_shape {
        }
        int_val: 0
      }
    }
  }
}
node {
  name: "init_ops/report_uninitialized_variables/boolean_mask/concat/values_0"
  op: "Const"
  attr {
    key: "_output_shapes"
    value {
      list {
        shape {
          dim {
            size: 1
          }
        }
      }
    }
  }
  attr {
    key: "dtype"
    value {
      type: DT_INT32
    }
  }
  attr {
    key: "value"
    value {
      tensor {
        dtype: DT_INT32
        tensor_shape {
          dim {
            size: 1
          }
        }
        int_val: -1
      }
    }
  }
}
node {
  name: "init_ops/report_uninitialized_variables/boolean_mask/concat"
  op: "Concat"
  input: "init_ops/report_uninitialized_variables/boolean_mask/concat/concat_dim"
  input: "init_ops/report_uninitialized_variables/boolean_mask/concat/values_0"
  input: "init_ops/report_uninitialized_variables/boolean_mask/strided_slice"
  attr {
    key: "N"
    value {
      i: 2
    }
  }
  attr {
    key: "T"
    value {
      type: DT_INT32
    }
  }
  attr {
    key: "_output_shapes"
    value {
      list {
        shape {
          dim {
            size: 1
          }
        }
      }
    }
  }
}
node {
  name: "init_ops/report_uninitialized_variables/boolean_mask/Reshape"
  op: "Reshape"
  input: "init_ops/report_uninitialized_variables/Const"
  input: "init_ops/report_uninitialized_variables/boolean_mask/concat"
  attr {
    key: "T"
    value {
      type: DT_STRING
    }
  }
  attr {
    key: "Tshape"
    value {
      type: DT_INT32
    }
  }
  attr {
    key: "_output_shapes"
    value {
      list {
        shape {
          dim {
            size: 63
          }
        }
      }
    }
  }
}
node {
  name: "init_ops/report_uninitialized_variables/boolean_mask/Reshape_1/shape"
  op: "Const"
  attr {
    key: "_output_shapes"
    value {
      list {
        shape {
          dim {
            size: 1
          }
        }
      }
    }
  }
  attr {
    key: "dtype"
    value {
      type: DT_INT32
    }
  }
  attr {
    key: "value"
    value {
      tensor {
        dtype: DT_INT32
        tensor_shape {
          dim {
            size: 1
          }
        }
        int_val: -1
      }
    }
  }
}
node {
  name: "init_ops/report_uninitialized_variables/boolean_mask/Reshape_1"
  op: "Reshape"
  input: "init_ops/report_uninitialized_variables/LogicalNot"
  input: "init_ops/report_uninitialized_variables/boolean_mask/Reshape_1/shape"
  attr {
    key: "T"
    value {
      type: DT_BOOL
    }
  }
  attr {
    key: "Tshape"
    value {
      type: DT_INT32
    }
  }
  attr {
    key: "_output_shapes"
    value {
      list {
        shape {
          dim {
            size: 63
          }
        }
      }
    }
  }
}
node {
  name: "init_ops/report_uninitialized_variables/boolean_mask/Where"
  op: "Where"
  input: "init_ops/report_uninitialized_variables/boolean_mask/Reshape_1"
  attr {
    key: "_output_shapes"
    value {
      list {
        shape {
          dim {
            size: -1
          }
          dim {
            size: 1
          }
        }
      }
    }
  }
}
node {
  name: "init_ops/report_uninitialized_variables/boolean_mask/Squeeze"
  op: "Squeeze"
  input: "init_ops/report_uninitialized_variables/boolean_mask/Where"
  attr {
    key: "T"
    value {
      type: DT_INT64
    }
  }
  attr {
    key: "_output_shapes"
    value {
      list {
        shape {
          dim {
            size: -1
          }
        }
      }
    }
  }
  attr {
    key: "squeeze_dims"
    value {
      list {
        i: 1
      }
    }
  }
}
node {
  name: "init_ops/report_uninitialized_variables/boolean_mask/Gather"
  op: "Gather"
  input: "init_ops/report_uninitialized_variables/boolean_mask/Reshape"
  input: "init_ops/report_uninitialized_variables/boolean_mask/Squeeze"
  attr {
    key: "Tindices"
    value {
      type: DT_INT64
    }
  }
  attr {
    key: "Tparams"
    value {
      type: DT_STRING
    }
  }
  attr {
    key: "_output_shapes"
    value {
      list {
        shape {
          dim {
            size: -1
          }
        }
      }
    }
  }
  attr {
    key: "validate_indices"
    value {
      b: true
    }
  }
}
node {
  name: "init_ops/init_1"
  op: "NoOp"
}
node {
  name: "init_ops/init_all_tables"
  op: "NoOp"
}
node {
  name: "init_ops/group_deps"
  op: "NoOp"
  input: "^init_ops/init_1"
  input: "^init_ops/init_all_tables"
}
node {
  name: "Merge/MergeSummary"
  op: "MergeSummary"
  input: "parallel_read/input_producer/queue/parallel_read/input_producer/fraction_of_32_full"
  input: "parallel_read/queue/parallel_read/random_shuffle_queue/fraction_of_160_full"
  input: "shuffle_batch/queue/shuffle_batch/fraction_over_48_of_32_full"
  input: "losses/total_loss"
  input: "eegnet_v2/input_layer/conv1/weights_1"
  input: "eegnet_v2/input_layer/conv1/BatchNorm/beta_1"
  input: "eegnet_v2/input_layer/conv1/BatchNorm/moving_mean_1"
  input: "eegnet_v2/input_layer/conv1/BatchNorm/moving_variance_1"
  input: "eegnet_v2/hidden/layer1/dilconv/weights_1"
  input: "eegnet_v2/hidden/layer1/dilconv/biases_1"
  input: "eegnet_v2/hidden/layer1/norm_filterXgate/beta_1"
  input: "eegnet_v2/hidden/layer1/norm_filterXgate/moving_mean_1"
  input: "eegnet_v2/hidden/layer1/norm_filterXgate/moving_variance_1"
  input: "eegnet_v2/hidden/layer2/dilconv/weights_1"
  input: "eegnet_v2/hidden/layer2/dilconv/biases_1"
  input: "eegnet_v2/hidden/layer2/norm_filterXgate/beta_1"
  input: "eegnet_v2/hidden/layer2/norm_filterXgate/moving_mean_1"
  input: "eegnet_v2/hidden/layer2/norm_filterXgate/moving_variance_1"
  input: "eegnet_v2/logits/1x1compress/weights_1"
  input: "eegnet_v2/logits/1x1compress/BatchNorm/beta_1"
  input: "eegnet_v2/logits/1x1compress/BatchNorm/moving_mean_1"
  input: "eegnet_v2/logits/1x1compress/BatchNorm/moving_variance_1"
  input: "eegnet_v2/logits/1x3reduce1/weights_1"
  input: "eegnet_v2/logits/1x3reduce1/BatchNorm/beta_1"
  input: "eegnet_v2/logits/1x3reduce1/BatchNorm/moving_mean_1"
  input: "eegnet_v2/logits/1x3reduce1/BatchNorm/moving_variance_1"
  input: "eegnet_v2/logits/1x3reduce2/weights_1"
  input: "eegnet_v2/logits/1x3reduce2/BatchNorm/beta_1"
  input: "eegnet_v2/logits/1x3reduce2/BatchNorm/moving_mean_1"
  input: "eegnet_v2/logits/1x3reduce2/BatchNorm/moving_variance_1"
  input: "eegnet_v2/logits/logits/weights_1"
  input: "eegnet_v2/logits/logits/biases_1"
  input: "batch_stats/accuracy"
  input: "batch_stats/labels_ratio"
  attr {
    key: "N"
    value {
      i: 34
    }
  }
  attr {
    key: "_output_shapes"
    value {
      list {
        shape {
        }
      }
    }
  }
}
node {
  name: "train_step/GreaterEqual/y"
  op: "Const"
  attr {
    key: "_output_shapes"
    value {
      list {
        shape {
        }
      }
    }
  }
  attr {
    key: "dtype"
    value {
      type: DT_INT64
    }
  }
  attr {
    key: "value"
    value {
      tensor {
        dtype: DT_INT64
        tensor_shape {
        }
        int64_val: 5000
      }
    }
  }
}
node {
  name: "train_step/GreaterEqual"
  op: "GreaterEqual"
  input: "global_step/read"
  input: "train_step/GreaterEqual/y"
  attr {
    key: "T"
    value {
      type: DT_INT64
    }
  }
  attr {
    key: "_output_shapes"
    value {
      list {
        shape {
        }
      }
    }
  }
}
node {
  name: "train_step/Mod/y"
  op: "Const"
  attr {
    key: "_output_shapes"
    value {
      list {
        shape {
        }
      }
    }
  }
  attr {
    key: "dtype"
    value {
      type: DT_INT64
    }
  }
  attr {
    key: "value"
    value {
      tensor {
        dtype: DT_INT64
        tensor_shape {
        }
        int64_val: 5
      }
    }
  }
}
node {
  name: "train_step/Mod"
  op: "Mod"
  input: "global_step/read"
  input: "train_step/Mod/y"
  attr {
    key: "T"
    value {
      type: DT_INT64
    }
  }
  attr {
    key: "_output_shapes"
    value {
      list {
        shape {
        }
      }
    }
  }
}
node {
  name: "train_step/Equal/y"
  op: "Const"
  attr {
    key: "_output_shapes"
    value {
      list {
        shape {
        }
      }
    }
  }
  attr {
    key: "dtype"
    value {
      type: DT_INT64
    }
  }
  attr {
    key: "value"
    value {
      tensor {
        dtype: DT_INT64
        tensor_shape {
        }
        int64_val: 0
      }
    }
  }
}
node {
  name: "train_step/Equal"
  op: "Equal"
  input: "train_step/Mod"
  input: "train_step/Equal/y"
  attr {
    key: "T"
    value {
      type: DT_INT64
    }
  }
  attr {
    key: "_output_shapes"
    value {
      list {
        shape {
        }
      }
    }
  }
}
versions {
  producer: 15
}
